data/interim/model_parameters.pth (torch, 377836 bytes, 7 tensors)

movie_embedding.weight f4 [1683, 32]
000000 0f c0 90 3f 45 d9 10 bf fd 88 69 3e 51 9e 33 3f
       1.1308612 -0.56581527 0.22806163 0.70163447
000010 e9 74 32 bf e0 05 f2 3c 0a 57 02 bf d9 c7 17 bf
       -0.6970964 0.029543817 -0.5091406 -0.5928932
000020 5d 40 02 bf d1 ba 6e 3f 79 af 78 be 84 ad 2f 3e
       -0.5087946 0.9325381 -0.24285688 0.17156035
000030 a1 f2 22 3f 95 a0 a1 be ec c9 98 3f 50 aa 16 3f
       0.6365147 -0.31567827 1.1936622 0.58853626
000040 80 ef 9b be a9 67 95 3e 97 1d 9d 3f 71 ae cd 3f
       -0.30456161 0.2918065 1.2274655 1.606886
000050 8b bd 88 3f 66 d1 0e 3e d6 c0 99 3e fa fa eb 3f
       1.0682844 0.13947067 0.30029935 1.8435967
000060 ca 8e c6 3f 49 26 01 3e ff 82 b0 bf be 51 16 bf
       1.5512326 0.12612261 -1.3789977 -0.5871848
000070 94 29 21 be fc 26 d4 3d 88 bf 4d 3f 4c 41 b5 bf
       -0.15738517 0.10358998 0.8037038 -1.4160552
000080 c4 4b 10 be 6d c4 4a 3f 00 47 f6 be bb 45 b7 bf
       -0.14091402 0.7920597 -0.48101044 -1.4318155
000090 c0 e1 0b bf 82 af 19 bf 33 61 47 bf 1d 1a 96 3e
       -0.5464134 -0.6003343 -0.7788269 0.29316798
0000a0 99 aa a6 bf 0e cf f1 3e 34 7c 2a 3f e2 33 2e 3f
       -1.3020812 0.47228283 0.6659577 0.68047917
0000b0 76 31 93 3d eb b3 3e 3f 08 e3 2c 3f ba 0a 46 3f
       0.07187168 0.74493283 0.6753392 0.7736012
0000c0 1c ac e6 bf 90 aa 8f 3f 79 b0 9d be 26 48 aa 3e
       -1.8021274 1.1223927 -0.307987 0.3325817
0000d0 d6 c3 2d 3e 27 b2 1e 3e db c2 68 3f c6 ef d5 3e
       0.16969237 0.15497647 0.90922326 0.41784495
0000e0 39 a6 7e 3f 02 9d 9c 3e d0 cb 03 bf 01 b4 bc 3e
       0.99472386 0.30588537 -0.5148287 0.36856082
0000f0 dd dd 65 3d c0 37 3a c0 39 31 d0 bd c6 ed f7 3e
       0.05611979 -2.9096527 -0.101656385 0.48423594
000100 f5 de b9 be 25 e4 de bf e4 7e 18 3d 76 ee ce be
       -0.36302915 -1.7413374 0.037230387 -0.40416306
000110 62 ae d2 3f 16 e1 c7 bf be 37 ef 3e 70 a6 18 40
       1.6459467 -1.5615566 0.46722215 2.3851585
000120 76 ba 0b be 92 30 87 be 07 8d fe bf 67 d9 ea bf
       -0.13645348 -0.26404244 -1.9886788 -1.8347596
000130 b7 38 d8 bd 4e 4b 3f bf 75 19 a1 be 8c d7 90 be
       -0.105576925 -0.7472428 -0.31464735 -0.2828945
000140 db e9 c4 bd 4e c8 c4 3e b0 20 09 3f 67 05 4a 3e
       -0.09614917 0.3843407 0.535655 0.19728623
000150 86 4c 9b bd 40 5b dd 3f b8 21 19 bf a0 43 7f 3f
       -0.07582955 1.7293472 -0.59817076 0.9971256
000160 75 4e 71 bf ba 26 d4 3f 2b 33 00 bf 8e 4d eb bd
       -0.9426034 1.6574318 -0.50078076 -0.11489402
000170 35 88 9c be 0e 60 2c 3f 70 10 bf bf 87 73 5d bf
       -0.30572668 0.6733407 -1.4926891 -0.86504406
000180 2d 12 88 3e 80 fa 45 bc 05 f6 31 be 12 d7 e7 3e
       0.26576367 -0.01208365 -0.17379005 0.45281273
000190 d8 1f 0c 3f 9d a5 e1 bf df 5d 73 bf 04 65 46 bf
       0.5473609 -1.7628666 -0.9506511 -0.7749789
0001a0 7e df 06 40 80 1a 55 3f 30 95 69 3f 16 33 05 3f
       2.1073909 0.8324356 0.9124327 0.52031076
0001b0 3a d8 ce bd a9 30 2c bf 33 64 16 40 ea 88 51 3f
       -0.10099836 -0.6726175 2.3498657 0.8184954
0001c0 89 3d 07 bf e8 a6 c8 be fe a7 b7 3f 67 bb 66 bf
       -0.5282827 -0.3918984 1.4348142 -0.90129703
0001d0 60 f4 40 3e 59 d7 11 bf 36 98 dc 3f 2d 45 9b 3f
       0.18843222 -0.5696922 1.7233951 1.2130486
0001e0 b3 10 ac 3f f4 90 71 3e 81 5e 48 be 3c 1e c1 3e
       1.3442596 0.23590451 -0.195673 0.3771838
0001f0 63 6d 80 3f 64 9b 12 3f 83 0c 49 bf df 4d 27 bd
       1.0033382 0.5726836 -0.78534716 -0.040845748
000200 ba 06 7f 3e c8 33 95 bf 82 ef 82 bf d9 da d2 3f
       0.2490491 -1.1656427 -1.0229342 1.6473037
000210 2a 04 0d 3f 1a 9e b2 be d5 d4 12 3f 7b 7f 6f bf
       0.5508448 -0.34886247 0.57356006 -0.93553895
000220 65 f0 b4 bf 4d c1 54 3d a2 e6 44 bf f2 98 36 bf
       -1.4135863 0.05194216 -0.7691442 -0.71327126
000230 de 95 c3 bf 47 96 b3 bf ec 9c 63 3f 67 88 22 be
       -1.5280111 -1.4030236 0.8891132 -0.15872346
000240 32 de bd be d8 5e 4c 3e d7 c6 33 3f 8c d3 a0 be
       -0.37083584 0.19958055 0.7022528 -0.31411397
000250 2d e8 f7 bf ed 5d 48 be 25 bf 56 3f 08 c3 22 40
       -1.936773 -0.1956708 0.83885413 2.5431538
000260 0a 07 40 3f f7 71 0f 3f 13 c7 98 3e 44 c1 a3 3f
       0.7501074 0.5603327 0.29839382 1.2793355
000270 d1 84 c3 bc e7 e4 9f be 17 31 e4 be 85 9d 0d 40
       -0.023867043 -0.31229326 -0.44568703 2.2127392
000280 f3 f9 c8 3e 59 e9 63 3f 08 53 2d 3d 6f 4b fb bf
       0.39253196 0.89027935 0.042315513 -1.9632396
000290 7a eb 6a 3f 3e 7a 23 40 80 ae f6 be f3 78 6b 3f
       0.9176556 2.554336 -0.48180008 0.9198143
0002a0 a1 07 02 3f a7 f4 10 be e3 1d 8d 3f 74 2b 92 bf
       0.5079289 -0.14155827 1.1024746 -1.1419511
0002b0 95 b9 0b 40 89 5f 5f bf a8 94 9f 3f 62 fb 90 bf
       2.183202 -0.8725515 1.2467241 -1.1326716
0002c0 ab fe a6 3f fe 4c b4 3e a4 9c 9e bf 98 da 4d 3d
       1.3046468 0.3521499 -1.2391553 0.050257295
0002d0 14 b9 8f be 1a b4 42 bf b8 4a aa be 8e 3e b3 3e
       -0.2807089 -0.76056063 -0.3326013 0.35008663
0002e0 7b 18 0b bf b0 de 21 bf 3c 10 56 3f 3d 6c d2 bf
       -0.5433423 -0.6323042 0.8361852 -1.6439282
0002f0 cc 88 56 3e 57 bb 28 bf 69 9f 58 3e 21 ab 1a c0
       0.20950621 -0.6591086 0.2115456 -2.4166949
000300 a5 16 5e 3f 22 f8 33 bf 31 29 88 bc 89 91 f2 3e
       0.867533 -0.70300496 -0.016621204 0.4737666
000310 bc 35 94 bf ad 0a ce be 89 90 b3 bf ea 0e b7 bf
       -1.1578898 -0.4024252 -1.4028484 -1.4301426
000320 8d 6e e9 3d 17 75 41 be ee a7 07 bf 5e d9 b1 be
       0.11398039 -0.18892322 -0.52990615 -0.3473615
000330 ac f8 05 3f a8 6f fb 3f 5f 15 01 3f 31 0f e6 bf
       0.5233257 1.964345 0.50423235 -1.7973386
000340 54 85 87 3f 1f af 16 c0 5a 1d b7 3f 0e 9a fb bf
       1.0587564 -2.3544385 1.4305832 -1.9656389
000350 4e 5f 1e bf 96 b0 2c 3f aa 76 a1 3f 84 c3 cb bd
       -0.61864173 0.6745695 1.2614338 -0.09949401
000360 8b 4a 1c 3f 24 9b 31 3f 7c 87 8b 3f f4 f1 d4 bf
       0.61051244 0.6937735 1.0900722 -1.6636338
000370 c5 58 82 bf 73 1e 04 be 45 a0 12 3f 9f 46 34 3e
       -1.018334 -0.1290224 0.572758 0.17605065
000380 06 25 71 3f 63 8f a1 3d f1 0c 44 be 8c 4e 84 3f
       0.9419712 0.07888677 -0.19145562 1.0336471
000390 dd fd 95 3f 1e a0 19 bf fe 8f 52 bf 83 c3 14 bf
       1.1718098 -0.60009944 -0.82250965 -0.5811083
0003a0 46 73 17 40 57 9d 8a 3d 83 47 09 bf 79 79 c6 3e
       2.3664107 0.067682914 -0.53624743 0.3876455
0003b0 e5 22 a6 3f f5 a4 2c 3f 17 b1 37 3f 33 30 44 3f
       1.2979399 0.67439204 0.7175459 0.76636046
0003c0 76 99 09 3e fa d5 b5 bf 23 65 29 3b 64 91 36 3f
       0.13437447 -1.4205925 0.0025847636 0.713156
0003d0 10 e0 fc bd 18 a6 46 bf 0e b4 d5 bf a1 17 1d 3f
       -0.12347424 -0.7759719 -1.6695573 0.6136418
0003e0 6a 88 98 3f a8 2f 04 40 8f 9c a0 bd ab 40 8e 3c
       1.191663 2.0654087 -0.07842361 0.01736482
0003f0 66 47 5e bf 17 74 6f 3f 8f 54 44 3f 9c 4e b4 3f
       -0.86827695 0.93536514 0.76691526 1.408649

user_embedding.weight f4 [943, 32]
000000 f5 6f 2a 3e 01 76 a2 3f cf 1d b2 be 71 26 97 3d
       0.1664427 1.2692262 -0.34788367 0.07380379
000010 4f 5c 46 3e ab fd ce 3e 24 20 f3 3e 81 c2 80 3f
       0.1937115 0.40427908 0.4748546 1.0059358
000020 07 69 3c 3e 1c 30 0f bf fa 98 d6 3f f5 f2 d7 3e
       0.1839944 -0.55932784 1.6765435 0.4217755
000030 32 bb b2 3f c3 97 9f be 9c 30 f5 be bb b7 ac bf
       1.3963377 -0.31170473 -0.4788865 -1.349357
000040 05 0a 57 3f 47 31 8d 3f b2 d4 43 3f ab a6 ab bf
       0.83999664 1.1030663 0.7649642 -1.3410238
000050 b6 08 c3 3f 69 c1 c2 bf ae 89 9a be d6 ab f1 be
       1.5237033 -1.5215274 -0.30183166 -0.47201413
000060 30 86 1a be a5 cf 7d bf 44 d0 0f 40 c4 dd 6e 3e
       -0.15090251 -0.99144965 2.2470865 0.23326784
000070 29 8c ed 3e 98 d4 33 bf 73 21 d0 bf b8 e9 bb 3f
       0.46395996 -0.7024627 -1.6260208 1.46807
000080 91 5e 33 3e fa 65 fb 3f 2e 3e 9e bf 0a 17 81 3f
       0.17516543 1.9640496 -1.2362726 1.0085156
000090 ba d4 b7 3f 6b 99 a7 bf 35 f6 97 3d 0c c0 82 bf
       1.4361794 -1.3093694 0.07420007 -1.0214858
0000a0 1e d6 be bf de 78 d8 be 29 53 63 3e b8 1f b5 be
       -1.4909093 -0.42279714 0.22199692 -0.35375762
0000b0 a1 e0 74 bd a2 a1 87 be 9e e0 08 3e 5c 38 46 3f
       -0.059784535 -0.26490504 0.13366935 0.7742975
0000c0 e6 7f 33 3e 59 67 2d 3f dd 9e 99 bd 54 3f e7 3e
       0.17529258 0.6773582 -0.07501004 0.45165503
0000d0 fc eb 18 3f d1 f4 95 3e 40 13 b8 3e cc 08 1f bf
       0.59735084 0.29288343 0.35952187 -0.621228
0000e0 53 fe 98 bf 53 2f c6 bf c4 1b 12 3e f8 36 8e bf
       -1.1952614 -1.5483192 0.14268404 -1.1110525
0000f0 49 fb c5 3e 51 5f 25 bf b0 ba 1a bd 0e 8e 59 c0
       0.38668278 -0.64598566 -0.037775695 -3.3992953
000100 d7 1c 28 3f b8 bc c1 3f bf c8 5a 3f d6 d3 c0 3f
       0.65669006 1.5135717 0.85462564 1.5064647
000110 10 e9 45 3f d3 ca e4 be 67 06 e8 3e e4 ab 21 bf
       0.7730875 -0.44685993 0.45317385 -0.6315291
000120 07 bd 08 c0 4f 21 cb 3f c9 0f 71 bf 41 f7 4a bf
       -2.1365373 1.586954 -0.9416471 -0.7928353
000130 51 dd ac be d9 06 2a bf 49 78 da 3f ef a4 1c 40
       -0.337626 -0.664167 1.7067958 2.4475667
000140 ef 7c 4c bf 50 56 1d bf 16 55 ef bf f8 14 6a 3e
       -0.79878134 -0.6145983 -1.8697841 0.22859561
000150 7a d7 2a 3e ed c8 c8 3d e4 19 e7 bf e2 8b 77 3e
       0.1668376 0.098039486 -1.8054776 0.24174455
000160 a3 b3 43 bf ff da d0 bf 73 ac e9 3d a9 d0 6f bf
       -0.7644598 -1.6316832 0.11409845 -0.93677765
000170 1b d7 61 3f 51 8f db be 37 ef bc be 6e 36 e4 3e
       0.8821885 -0.4288278 -0.36901256 0.44572777
000180 09 9f 82 3d e2 d4 6c 3f 85 4d 09 3f 21 fa 6c bf
       0.0637799 0.92512333 0.5363391 -0.92569166
000190 d3 83 34 3e de 74 12 3f 63 8b 09 3f 8e ff ba bd
       0.17628412 0.57209575 0.5372831 -0.091307744
0001a0 60 91 c1 3f 31 a7 fe bd ff d1 37 be fe f3 2b 3f
       1.512249 -0.12434233 -0.17951201 0.6716918
0001b0 f2 09 3a bf c7 74 98 be 1d 52 84 be 22 1b 46 bf
       -0.72671425 -0.29776594 -0.25843897 -0.7738515
0001c0 fd 0c e4 3f 8a c1 e9 bd e7 a7 93 3f 44 d0 40 3e
       1.7816464 -0.11413868 1.1535615 0.18829447
0001d0 b1 46 b5 bf d1 31 b4 bf 07 21 93 3f c2 63 a0 bf
       -1.4162198 -1.4077703 1.1494454 -1.2530444
0001e0 3e 9a 01 bf 0b 9d 8a 3f 5d a6 95 3f eb 19 ad 3f
       -0.5062598 1.0829176 1.1691395 1.3523535
0001f0 fb ff d0 bc 16 52 57 bf c5 9d 66 bf db e3 9f bf
       -0.025512686 -0.8410963 -0.9008449 -1.2491411
000200 3b 0c 97 3e 3e 05 c8 3f 43 ed 0e 3d 26 cb 80 3e
       0.2950152 1.56266 0.03489424 0.2515499
000210 01 72 3a 3f 56 a3 18 3f 6f 45 cc bf fd 34 37 bf
       0.72830206 0.5962423 -1.595869 -0.7156523
000220 e9 82 2e bc 62 4f fd 3e 54 75 05 40 e0 fc 0f c0
       -0.010651329 0.49474627 2.0852861 -2.2498093
000230 f6 8d 9d be 57 4b 82 3d 32 ce a2 bf f6 c2 ab be
       -0.3077237 0.06362026 -1.2719176 -0.3354718
000240 b5 36 53 3f 46 28 c7 be c4 e6 68 3f 4e 58 6d bf
       0.8250535 -0.38897914 0.9097712 -0.9271287
000250 c8 52 a6 3d 91 e2 59 bf 7f a9 9b 3f 3d 10 9d be
       0.08121258 -0.8511134 1.2161101 -0.3067645
000260 f7 6c 25 3f 05 71 70 3f 66 60 53 3e 97 5e 29 3f
       0.6461939 0.93922454 0.20642242 0.6615996
000270 7f 2f b0 3f 4d 77 43 bf cc 54 6f 3f fd 5c 2c be
       1.3764495 -0.76353914 0.93488765 -0.16832347
000280 21 7c 15 3f 56 aa 35 bf 3f 17 3c bf aa ef 7f 3e
       0.5839253 -0.70963037 -0.7347297 0.24993768
000290 de 85 09 40 89 cb db 3c 4c 36 70 3f d4 c9 5f bd
       2.1487956 0.026830452 0.9383285 -0.054635838
0002a0 5f 59 db bf e8 f9 c4 3e c2 24 6d be 5e 4f 1d 3e
       -1.7136649 0.38471913 -0.23158553 0.15362307
0002b0 b1 93 12 3e 2b 25 c3 be c7 71 13 3f dc 85 a1 3f
       0.14314152 -0.38114294 0.57595485 1.2618976
0002c0 6c a8 af 3f 15 c6 be be 4c 3f b1 3e 66 68 aa 3f
       1.3723273 -0.372605 0.34618604 1.331311
0002d0 50 d9 67 bf c0 ef ef bf c6 61 06 3f 6c 01 20 bf
       -0.9056597 -1.8745041 0.5249294 -0.6250217
0002e0 ed 8d d6 3e b3 82 70 bf eb c9 42 bf 7a 3c 89 be
       0.41905156 -0.9394943 -0.7608935 -0.26803952
0002f0 09 0b 6f bf 28 26 5f bf b3 03 f0 3f e5 50 59 be
       -0.93376213 -0.87167597 1.8751129 -0.21222265
000300 02 33 86 bf 96 b1 7d 3e 46 87 5f 3f 84 43 7f 3f
       -1.0484316 0.24774775 0.87315786 0.99712396
000310 44 07 0e 3f 8a b8 b9 bf 07 b4 a1 3f fb 3b 80 bf
       0.55479836 -1.4509442 1.2633065 -1.0018305
000320 3e 74 68 bf 5c c6 77 3f ba cf 6a 3e ce e4 b2 3d
       -0.9080237 0.9678705 0.22930804 0.08735047
000330 de 99 1b bf ac 85 41 bf aa 57 ba 3d 00 03 95 3f
       -0.6078166 -0.7559459 0.09098752 1.164154
000340 f0 f6 1d bf 07 94 87 3e be 32 11 3f 65 ee 4b 40
       -0.6170492 0.26480123 0.5671805 3.1864254
000350 9d 39 36 3f 8c ce c7 bf 08 a4 92 be a0 dc 1a bf
       0.7118166 -1.5609908 -0.2864077 -0.604929
000360 99 7c 7d 3f be 94 7a 3f ec 9f 2b bf 47 f0 c4 3c
       0.99018246 0.9788321 -0.67040896 0.024040354
000370 e4 66 1c 40 c4 ec af bf 1b e2 5e be ff 26 24 3f
       2.44378 -1.374413 -0.2176594 0.64122003
000380 0e f6 15 c0 0d 96 0c 3f 79 82 ac 3e 3f 0e 45 bf
       -2.343143 0.5491646 0.33693293 -0.7697486
000390 92 da 82 3e e8 1b 29 3f 46 b3 72 be 9b 1b db be
       0.2555738 0.66058207 -0.237012 -0.427945
0003a0 6d f2 87 bf 05 11 c0 bf fd 3b 7c bf 4b 2f 28 bc
       -1.0620857 -1.5005194 -0.98529035 -0.010265182
0003b0 a3 13 89 3e af 09 fa 3e 17 dc d3 3f 2e 96 57 3f
       0.26772794 0.48835513 1.6551541 0.8421353
0003c0 81 88 81 3f 00 38 5d 3f 10 47 8d be 0e c5 4e 3f
       1.0119783 0.86413574 -0.2759328 0.8076943
0003d0 f5 92 e2 bf da 20 af be 94 b0 3b 3f b2 16 7b 3f
       -1.7701098 -0.3420475 0.7331631 0.98081505
0003e0 b1 b6 11 3e 8a 38 fa 3e 2a d3 4a 3f 4f 52 dd 3f
       0.14229847 0.4887126 0.7922846 1.7290744
0003f0 77 22 8b 3f f8 74 a7 3e 5b 8d 8d 3f 15 0b cc 3f
       1.0869893 0.32706428 1.1058763 1.5940882

fc1.weight f4 [64, 83]
000000 94 2d 08 3e 93 70 13 bd b8 52 56 3d 13 91 c0 bd
       0.13298637 -0.03599603 0.05232498 -0.09402671
000010 86 64 5e 3d d1 e1 86 bd b8 63 85 bb 2c 59 e1 3d
       0.054295085 -0.0658604 -0.0040707253 0.11003336
000020 e0 4d 11 bd 6f 0a b7 3d ef d3 0e 3d 04 7c 15 bd
       -0.035474658 0.08937537 0.034870084 -0.036495224
000030 b9 30 04 3d f6 40 ef bd 3b 97 11 bd 59 ab e4 3b
       0.032273028 -0.11682312 -0.035544615 0.006978434
000040 79 4e 90 bd 2f 57 2e 3e d8 56 83 bd b0 d5 d9 3d
       -0.070462175 0.17025445 -0.064130485 0.10636461
000050 e8 e2 a7 bc 6e 80 a0 3d 02 fb fd bd 95 e1 ae bc
       -0.02049394 0.07836996 -0.124013916 -0.0213478
000060 fb 23 e2 3d 6a ff 1f bd 15 6e f5 3c f9 18 ac 3d
       0.11042019 -0.03906194 0.029959718 0.08403201
000070 84 94 4a bc 21 f6 ec 3d 78 ce 1a 3e f7 e4 72 3d
       -0.01236451 0.11570383 0.15117824 0.05930039
000080 88 6e 09 ba 9d b5 63 3d 8f 7e 72 bd 0b 6d 97 3d
       -0.00052426057 0.05559312 -0.059202727 0.07393845
000090 9d 5a 10 3e fe d9 14 be 18 64 b4 bb 0f dd 1d 3e
       0.14097066 -0.14536282 -0.005505096 0.15416358
0000a0 e3 8c b4 3d 11 07 da bd a3 0b 1a 3e 00 af c6 3d
       0.088159345 -0.10645879 0.15043502 0.09701347
0000b0 52 e0 f1 bd e5 d1 a7 3d 53 b8 03 bd b0 5e 31 bd
       -0.11810364 0.08194331 -0.032158207 -0.04330319
0000c0 08 e8 e7 bd 22 fa 76 3d 44 4b cb bd 2b 39 11 be
       -0.11323553 0.06029714 -0.09926465 -0.14181964
0000d0 7f 84 33 bd 5d 80 bb bd d2 d4 ec 3c 37 b0 5f bc
       -0.04382753 -0.09155343 0.028910074 -0.013652853
0000e0 2b e1 ce 3d fc 9e 3a be 93 ac 12 3d 2c cb 2f 3d
       0.10101541 -0.1822471 0.03580911 0.04291837
0000f0 d4 bf 4a 3d 7e aa e4 bd 16 f2 fc bc f0 63 2f be
       0.049499348 -0.11165331 -0.030877154 -0.17127967
000100 dc 69 9e bc 6c 8f 95 3d 94 40 23 bd 2e 41 17 bd
       -0.019337587 0.07302746 -0.03985651 -0.036927395
000110 e8 d9 50 3d ce d0 9a bd 00 78 6e 38 64 27 6f 3d
       0.05098906 -0.075593576 5.685538e-05 0.058387175
000120 11 fa 85 bd 50 f6 2d bc 86 9f 66 bd 78 d9 bd bc
       -0.06541837 -0.0106178075 -0.056304477 -0.023174986
000130 4b e4 be bd c0 ec bb 3c c8 fb 06 3c 5d 19 bc bd
       -0.09320887 0.02294004 0.00823874 -0.09184525
000140 24 df dd bc 1e 10 3c bd 97 8e c3 bd 94 aa ea bc
       -0.02708394 -0.045913808 -0.09548681 -0.028645791
000150 31 94 c9 3b 49 c9 84 bd df b1 a7 3a 33 2b 3b 3d
       0.006151699 -0.064837046 0.0012794099 0.045695495
000160 12 32 9e bd 9d cc e5 3c f2 3c 90 bd c4 c6 a5 bd
       -0.07724394 0.028051669 -0.070428744 -0.08094552
000170 e3 65 26 bc dd 9b 8f bd 8c d3 3d bd bc e4 cc 3d
       -0.010156128 -0.070121504 -0.046344325 0.10004565
000180 04 b9 98 bd 92 84 12 bd b7 5c 90 bd f8 38 72 3d
       -0.07457164 -0.03577096 -0.07048934 0.05913636
000190 7e 92 b5 bd 17 51 66 bd 2f 74 16 bd 17 65 9c 3c
       -0.08865832 -0.056229677 -0.036731895 0.019091172
0001a0 78 ad 18 3a f6 4d 56 bd 20 ab 90 3d 9b f3 5f 3d
       0.00058241887 -0.052320443 0.070638895 0.05467568
0001b0 89 66 14 bd b4 b0 0b 3d 48 ee 69 3d fd 67 ab 3d
       -0.036230598 0.034104064 0.05711201 0.083694436
0001c0 45 55 20 3c 33 0c 99 bd 8a dc 3a 3d 3a 84 3d 3b
       0.009785955 -0.0747303 0.04562048 0.0028917925
0001d0 5a 8c 09 be 1a 15 c2 3d 35 f1 c4 3d 27 02 f2 bd
       -0.13432446 0.09476681 0.09616319 -0.11816817
0001e0 22 63 37 bd 53 0a 38 bd b4 71 65 bd 58 a3 cf bd
       -0.044772275 -0.04493172 -0.05601664 -0.10138577
0001f0 af f7 76 3d da 5a e6 bd 17 d2 00 3e 16 0a 61 3c
       0.060294803 -0.11247797 0.12580143 0.013735315
000200 24 5b 5b bd 5e 58 10 bd 9d c8 09 bd 9c 2d 3c 3d
       -0.053553715 -0.035240524 -0.033638585 0.045941934
000210 54 9e b4 3d 6b 4f e6 3c c4 02 0a be d2 fd 43 3d
       0.08819261 0.028114041 -0.13477618 0.047849484
000220 e3 2f d9 3c 0c 12 84 bd e6 68 e2 bd f7 00 47 be
       0.026512092 -0.06448755 -0.11055164 -0.19433962
000230 d2 e8 fe 3c c3 94 68 3d 05 99 95 3d fa 6f 30 bd
       0.031116877 0.056782495 0.07304577 -0.04307554
000240 a2 91 82 3d 33 2e 39 bd af c4 9c bd 00 38 66 39
       0.063754335 -0.045210075 -0.07654702 0.00021955371
000250 78 d7 be 3d ec 4a 7f 3d 78 37 a0 bc f0 69 51 3d
       0.09318441 0.06232731 -0.0195577 0.05112642
000260 ee a7 84 bd 7c 7e 32 3d 10 89 27 bc e4 fa 44 3d
       -0.064773425 0.043577656 -0.010225549 0.04809083
000270 63 53 71 bd 34 bd be bc 48 33 99 3c 45 70 95 bd
       -0.058917414 -0.023283578 0.01870121 -0.07296804
000280 0a b1 20 bd 78 0b c5 bd 02 80 30 bd 4a 9a 2b bd
       -0.039231338 -0.09621328 -0.043090828 -0.04189519
000290 f4 f6 bd bc 70 f5 56 3d 7b 83 e5 3c 47 f1 64 3c
       -0.023189045 0.05248016 0.028016796 0.013973541
0002a0 6f e3 b5 bd c8 4e fe 3c 77 85 81 bd df 99 a2 bd
       -0.0888127 0.031043425 -0.063242845 -0.07939505
0002b0 d2 4f c7 3d f3 84 06 be de be 12 3e 9a d7 29 bc
       0.097320214 -0.13136654 0.14330623 -0.010366345
0002c0 fa df f4 bd ea 2a a8 3d a1 7d 9d 3c 7b 30 05 be
       -0.11956783 0.0821131 0.019224944 -0.13006775
0002d0 75 80 bd bd b8 ec dd 3c c1 18 0d 3d e0 c5 0c 3e
       -0.09253017 0.027090415 0.034447435 0.13747358
0002e0 50 3d 00 3e 87 7d 7a 3c 1c 20 0c be be d9 95 3d
       0.12523389 0.015288717 -0.13684124 0.07316922
0002f0 76 83 06 be a3 ce 91 3d 91 4c 87 3d f1 b4 b1 bd
       -0.13136086 0.07119491 0.06606401 -0.0867709
000300 22 23 87 3d dc 46 20 3d 88 f7 35 bb eb 2e b6 3d
       0.06598498 0.039130077 -0.0027765948 0.08895668
000310 20 03 f6 bb 45 a4 87 bd e9 a7 c0 bc 6e 27 9a bd
       -0.0075076967 -0.06623129 -0.023517566 -0.07527052
000320 04 3b c5 bb 4f e0 07 3e 66 e9 43 bd 33 89 dd 3d
       -0.006018998 0.1326916 -0.047830008 0.10817184
000330 f1 e7 f5 3c f2 cd af 3d 2b 06 ff 3d ad ce 33 3d
       0.030017825 0.08584203 0.12452348 0.043898273
000340 36 fc f0 3d b9 a0 e6 bd 25 22 86 3c 3f c8 e1 bd
       0.117668554 -0.11261124 0.016373703 -0.11024522
000350 f4 a1 90 bd 1d 51 a6 bd b0 45 11 3d 71 7f a8 3c
       -0.0706214 -0.0812094 0.03546685 0.020568581
000360 6b cf d0 bd 97 b3 64 bc b9 dc d5 3d ae 34 2b be
       -0.10195812 -0.013958833 0.1044249 -0.16719314
000370 ba 39 d9 3d c4 73 03 3e a7 1a f5 3d 7c 39 b5 3d
       0.106067136 0.1283713 0.11967974 0.08848855
000380 0c 5c 17 3e 79 ba 45 bd af 3e c4 3d b9 dc 8e 3d
       0.14781207 -0.048273537 0.095822684 0.06975693
000390 6f 74 21 be 84 6d cd 3d 52 8c 82 bd fc eb dc 3d
       -0.15767072 0.10030654 -0.0637442 0.10787198
0003a0 1d c6 c4 bd 68 69 97 3d a0 92 5b 3d 0a 4c 98 3d
       -0.096080996 0.073931515 0.05360663 0.07436378
0003b0 cd 56 43 bd 52 2d 31 bd 08 a4 ee 3c 14 c6 81 3d
       -0.0476902 -0.04325611 0.02913095 0.063366085
0003c0 1e 29 bd bd 0c 93 d2 3d 90 65 49 bd a0 7b e0 bc
       -0.09236358 0.10281953 -0.049169123 -0.027402699
0003d0 39 c3 c8 bd 28 32 44 3c b0 00 6b 3d 19 c6 56 bd
       -0.09802861 0.011974849 0.057373703 -0.052435014
0003e0 dc c5 d9 bd 10 7f d1 3d 7b f8 81 bd 54 52 75 bd
       -0.10633442 0.102293134 -0.06346222 -0.059892967
0003f0 7a 41 3d 3d 1e 5b 1c bd 5f 7b 0b bd a8 5f 5f 3b
       0.04620502 -0.038172834 -0.034053203 0.0034084115

fc1.bias f4 [64]
000000 68 a3 2c 3e 59 47 8c bd bd 87 20 3e 65 46 97 bd
       0.1685921 -0.06849546 0.1567678 -0.073864736
000010 32 a2 eb 3d c5 a6 bc bc 0d bd c1 3d 45 b4 76 3d
       0.11505546 -0.02302874 0.09459887 0.060230512
000020 58 3b e5 bc 53 df 10 3c b4 34 bc 3d 08 fb 42 bc
       -0.027982399 0.008842307 0.0918974 -0.011900671
000030 f0 b3 34 bb 64 70 28 3d c0 72 fd bc 96 da 74 3d
       -0.0027573071 0.04112281 -0.030938506 0.059778772
000040 e0 4b 7e 3d 19 3a 1c 3e df 84 c7 3c b7 3d fc 3d
       0.06208408 0.15256537 0.02435535 0.12316459
000050 9c ff 35 3d cd b1 10 3e 8c c6 ea 3d 2d fe d9 3c
       0.04443322 0.14130326 0.11463651 0.026610458
000060 16 5e 9c bd 89 c1 b2 bc 98 92 03 3e f7 1a b9 bc
       -0.07635133 -0.0218208 0.1284889 -0.022595866
000070 0a aa 2a 3c 52 fa 5d 3c fe c9 0e bd 17 5c 0f 3e
       0.010416517 0.013548451 -0.034860604 0.13999973
000080 d0 0a 5e 3d e9 69 86 bc 21 74 67 3d ad c4 65 3d
       0.05420953 -0.016407924 0.056507234 0.056095768
000090 e4 25 6f 3d 8b 69 14 3c 66 81 b0 bb c6 c5 51 3d
       0.058385745 0.0090583665 -0.0053865192 0.051214002
0000a0 26 cb 18 3d 4d 2e 95 3d 59 2c 0d 3e 68 78 f3 bc
       0.037303112 0.07284222 0.13786449 -0.0297205
0000b0 e0 4a 00 3e 41 e4 0f bd c3 f5 85 3c ea 4f 1c 3c
       0.12528563 -0.03512979 0.01635254 0.009540537
0000c0 1d 92 8b bd db ff 22 3e 1a 3c 3d 3d 1a 32 08 3e
       -0.06814978 0.15917914 0.046199895 0.13300362
0000d0 45 66 a7 3d 03 55 a9 3d 27 df b9 3d 64 9e 33 bc
       0.08173803 0.08268168 0.09075766 -0.010963056
0000e0 61 27 c8 3d 2c 38 32 3e 88 65 8b 3d be 83 3e bd
       0.09773136 0.1740424 0.06806475 -0.046512358
0000f0 b4 6e f0 3d 84 77 24 3e 33 ce 5d bc a3 ba 0b 3e
       0.11739865 0.16061217 -0.013537931 0.13645415

fc2.weight f4 [64, 64]
000000 9b 8f 9f bc 8a 68 90 bd 7d e6 33 3d 14 7d 1b 3d
       -0.019477656 -0.07051189 0.043920983 0.03796108
000010 17 91 a2 3d 4e 8d 04 be 12 d8 82 3c 07 b6 82 3d
       0.0793783 -0.12944528 0.015972171 0.06382375
000020 75 fe fe bd 03 f6 75 bd 8e aa f9 bb 0e 1a 70 3c
       -0.124508776 -0.06004907 -0.0076192087 0.014654649
000030 76 23 13 be 03 7d c5 bd ad 88 d7 bd 0c 70 d8 bd
       -0.14368996 -0.09642985 -0.10524116 -0.10568246
000040 47 a6 e9 bd eb 67 c1 bc f8 f2 e6 bd af 2b 4d bc
       -0.11408668 -0.023609122 -0.11276811 -0.012522622
000050 af 73 98 3d df c8 a6 bc 01 24 e9 bd 60 6e b9 3c
       0.0744394 -0.020359455 -0.1138382 0.022635639
000060 8c ea c3 3c 58 03 33 bc ec 19 ec 3c 3f 21 a0 bd
       0.023915552 -0.01092609 0.028820954 -0.07818841
000070 dd c1 8c 3d 01 2c 07 be 05 a8 a3 3c 43 94 3e 3c
       0.06872914 -0.1320038 0.019977579 0.011632028
000080 f0 0b d2 bc b5 45 c6 bd 19 e3 6b bc 6a 4e 36 bc
       -0.025640458 -0.09681264 -0.014397406 -0.011127094
000090 18 aa 41 3d ed 87 89 3d 25 b8 b9 3d 3f 9c a4 3b
       0.047281355 0.06715379 0.09068326 0.005023509
0000a0 fa 16 11 3d e2 ee 28 bd 38 ca 0b 3d 9c 20 c8 bd
       0.035422303 -0.04124344 0.034128398 -0.09771845
0000b0 1c ef df bc b8 fe b4 bc fc 98 72 bd a8 d6 fe bd
       -0.027335696 -0.022094116 -0.05922793 -0.12443286
0000c0 e0 ba ce bc 7a 61 16 be b8 4c 04 be 2f 66 7a 3c
       -0.025235593 -0.14685622 -0.12919891 0.0152831515
0000d0 79 bc c2 bd 1e d6 96 3d 15 0e 06 be 5a dd 88 3d
       -0.095086046 0.07365058 -0.1309131 0.066828445
0000e0 3e 5a 80 3d c0 6c a0 3d 6f 29 43 3d 7a d7 b7 bd
       0.06267212 0.078332424 0.047646936 -0.08976646
0000f0 6c b2 20 bd 4a af cd bd b9 36 86 bc 9d 77 79 bd
       -0.039232656 -0.10043199 -0.016383516 -0.060905088
000100 2f 6d 83 3c 18 46 0b 3e 85 36 98 bc 1e 93 af 3d
       0.016043274 0.13600957 -0.018580684 0.08572982
000110 79 df 1d 3d 2b 6f 0e 3c c1 b7 75 3d cd 24 0f 3e
       0.0385432 0.008693497 0.059989695 0.13978882
000120 12 05 43 3d 8e 81 13 3e e2 81 96 bc 1b d9 19 3e
       0.047612257 0.1440489 -0.01837248 0.15024225
000130 7d 37 69 3d d0 24 f4 3d c2 8f 72 3c 71 40 09 3d
       0.056937683 0.11921084 0.014804782 0.03350872
000140 51 f5 e6 bc eb 74 3c 3e 9d 88 4a 3d 24 ca 99 3d
       -0.028193148 0.18403976 0.04944669 0.075092584
000150 82 9d ba bc ae 97 b9 3b 31 7b ec bc 47 eb 96 bd
       -0.022780184 0.0056638336 -0.028867336 -0.07369094
000160 16 75 a0 3d f9 18 58 3d 49 03 63 bc ff 7d 9f 3d
       0.07834832 0.05275819 -0.013855764 0.07787704
000170 0a 51 07 3e d1 8d 0c 3d 84 ca 54 3d 31 5e d9 3c
       0.13214508 0.034314934 0.051950946 0.026534172
000180 d4 4b 23 3e 81 2f 25 3e 8c 1a b7 ba 87 35 a8 3d
       0.15946895 0.16131403 -0.0013969704 0.082133345
000190 0c 0a 27 3e b6 0b 65 bd 8a 46 9c bd cc aa 81 bd
       0.16312426 -0.05591937 -0.07630642 -0.06331405
0001a0 5d dd 88 bb 71 50 3f bd e4 8c 0e bd 6f 4b 7f 3d
       -0.004176779 -0.046707574 -0.034802333 0.0623278
0001b0 e5 0b 3f bc 08 34 2c bd 4d 41 fa 3c 51 0f ac 3d
       -0.011660551 -0.04204181 0.030548716 0.08401359
0001c0 2d 1c 26 3e 7d 1c 36 3e b3 f2 9c bc 89 9a fe 3c
       0.16221686 0.17784305 -0.019158697 0.031079547
0001d0 70 d0 9b 3d c2 cc 87 3d c8 4a 8f 3d 4f b6 28 3d
       0.07608116 0.06630851 0.06996685 0.041189488
0001e0 a8 ae 8f 3d bb a6 c2 3d 4f 47 13 3e 6e 46 88 bd
       0.07015735 0.095044576 0.14382671 -0.066540584
0001f0 59 ac f4 bc cc 4d 63 3d 8a 55 06 3c 6d cc d0 bb
       -0.029867338 0.055494115 0.008199105 -0.0063720257
000200 82 94 7b bc 88 d9 c0 3d ce 57 3a bc a5 d4 13 bd
       -0.015355231 0.09416491 -0.011373473 -0.036091466
000210 8d 57 84 bd 94 ba f5 bb 4e 95 c7 3d 00 86 1d 3d
       -0.064620115 -0.0074990485 0.097452745 0.03845787
000220 06 6b e8 3d 41 8f d5 3d 2d 37 31 bd 69 7f 73 ba
       0.11348538 0.10427714 -0.04326551 -0.00092887
000230 32 98 19 3e 3b a1 16 3e d5 74 12 bd 11 89 12 3e
       0.14999464 0.14709942 -0.03575595 0.14310099
000240 70 0e 4c bd 26 27 e4 bb 4d 4f 8a bc 43 f2 d2 3d
       -0.049818456 -0.0069626747 -0.016883517 0.10300114
000250 9f ec d1 3d 28 8c 00 bc 39 27 db 3d e7 90 e6 3d
       0.1025021 -0.007845916 0.107008405 0.11258107
000260 e3 e6 96 bd af 9e 86 bd 7f ff a3 3d a9 9a 21 bd
       -0.07368257 -0.06573235 0.080077164 -0.039454136
000270 a4 c4 d8 3d f8 7c 81 bd e8 29 33 3d bf 60 e8 3d
       0.10584381 -0.06322664 0.043741137 0.11346578
000280 3c c0 c4 3d 45 b5 34 bc 4c d7 46 bd 1a e2 b0 ba
       0.09606978 -0.011029546 -0.048545167 -0.0013495118
000290 53 c5 3c bd c9 8f 1c bd e9 31 53 bd 8e 2c f8 3c
       -0.04608662 -0.03822306 -0.05156127 0.030294683
0002a0 a3 e4 fa 3d fe ed fa 3c fd 4b 97 3a ac f4 00 3e
       0.1225064 0.030631062 0.0011543032 0.12593335
0002b0 7f e1 26 3d ae eb f5 3d e3 ba a4 3d 4a 1c a3 3c
       0.040742394 0.12007843 0.08043458 0.01991095
0002c0 d2 42 61 3d c5 26 fc bc 60 9e 17 3e 98 f4 33 3d
       0.054995365 -0.030780206 0.14806509 0.043934435
0002d0 35 e5 06 3d 98 49 b4 3d 29 1f c6 3d e5 d9 1f 3e
       0.032933433 0.088030994 0.09673912 0.15610464
0002e0 9f ff 8b bc 46 63 9e 3d 0f 7e 0f bd 0a 19 68 bc
       -0.017089663 0.07733779 -0.03503233 -0.014166126
0002f0 b0 ae 24 3e 4a fd a8 3d e5 50 b9 3d a1 5a 6b bc
       0.16082263 0.08251436 0.090486325 -0.014364869
000300 15 27 1d 3e bf 46 2c bd bc cb d0 bc ae e5 21 3c
       0.1534694 -0.042059656 -0.025487773 0.00988142
000310 20 f7 95 3d 98 6b 00 3e eb 39 30 3c 31 f1 d6 3d
       0.07322526 0.12541044 0.010755996 0.10495222
000320 75 84 ad 3d 0c 6d dd 3d 22 b9 72 3b db 7d 45 3d
       0.0847253 0.10811815 0.0037036617 0.04821573
000330 e9 9c bc bb fd 1b b8 bb ad 1f e3 3d 58 79 e5 bc
       -0.00575601 -0.005618571 0.11090026 -0.028011963
000340 d1 f8 03 3d d5 44 66 bd d3 c2 7e bc 66 2d 94 bd
       0.03221971 -0.056217987 -0.015549379 -0.072352216
000350 e2 a7 98 bd 06 89 54 3d d0 8e 79 3d ef 05 ad bc
       -0.07453896 0.05188849 0.060927212 -0.021120993
000360 2d 6d 6e 3d 5f a0 e4 3d 91 ae 17 3e 25 bb 0b 3d
       0.058209587 0.11163401 0.14812686 0.03411402
000370 3b 5e b1 bd 62 c5 20 3e 04 e3 30 bd 6b d2 f7 3d
       -0.08660551 0.15700296 -0.04318525 0.12100681
000380 88 3e 81 bd 73 f4 07 3e d1 39 1f 3e 6d ed 3c bd
       -0.06310755 0.13276844 0.15549399 -0.046124864
000390 06 78 32 bd 0c eb 52 bd 91 1b 03 3e 3d 4d 8a bd
       -0.043571495 -0.05149369 0.12803484 -0.06753013
0003a0 8a a4 8a 3d 78 1a a5 3d ba 73 32 3c a8 f5 f3 3d
       0.067696646 0.08061689 0.010891849 0.119120896
0003b0 2c b9 8c 3d 35 7f 50 bd 88 3b 16 bd 9a b5 48 3d
       0.06871256 -0.050902564 -0.036677867 0.049001314
0003c0 87 7e 90 3d 5e d3 0f ba dc 11 20 3d a3 6b ba 3d
       0.07055383 -0.0005486513 0.039079532 0.09102561
0003d0 54 00 96 3d 5f ec a3 3d d6 11 68 3c 62 92 a5 bb
       0.07324281 0.080040686 0.014164409 -0.0050528506
0003e0 ff cd ab 3d 0f a5 6f 3d 1b b1 9b 3d c8 aa a9 3d
       0.083889 0.05850702 0.076021396 0.08284527
0003f0 52 7b f1 3d ee 44 71 3d c1 6c b5 bc 6e 3d 25 3e
       0.117910996 0.058903627 -0.022146584 0.16136715

fc2.bias f4 [64]
000000 f3 b1 f6 3c 38 14 9e bc aa db 68 3d 0d 1a fe 3d
       0.03011415 -0.01929675 0.056850113 0.124073125
000010 76 46 12 bc fa be 0f be 53 d9 0d 3d f4 a7 61 3d
       -0.008927932 -0.14037696 0.034631085 0.055091813
000020 ae 0c 8d 3d fe 86 ec 3d fa 90 e1 bd 58 ae 0f bd
       0.06887184 0.11549185 -0.1101398 -0.035078377
000030 e8 4f 0b 3e 52 14 69 bc 41 d9 11 3b 32 89 5d 3d
       0.136047 -0.014226036 0.0022254738 0.054085918
000040 29 4f d2 3c 4e f9 bc 3d 66 31 20 3e b9 f9 b0 3d
       0.025672512 0.092272386 0.15643844 0.08641381
000050 12 be 39 3e e1 0d 8d 3c 7a c5 d5 3d 1e f7 35 bd
       0.18138912 0.017218532 0.10438056 -0.044425122
000060 53 ba 42 bd 0a 06 6f ba 1b 6c 21 bd 3f a7 85 3c
       -0.047540974 -0.00091180264 -0.039409738 0.0163151
000070 26 25 8e 3d e4 15 41 bd 0f 35 00 3e 2f 35 ab 3c
       0.06940679 -0.047140017 0.1252024 0.020899383
000080 43 4a d0 3d 9b fc 9c 3d 0d f8 fb 3c 43 cd e0 3d
       0.10170414 0.07665368 0.030757928 0.109766506
000090 2b 8d 22 3b 76 ba 5e bd 8d 4a 87 bd d2 d6 dd b9
       0.002480338 -0.05437704 -0.06606016 -0.00042312458
0000a0 2a 7a 82 3c f4 f8 55 bd 3f 59 ce 3d 72 6f f6 3d
       0.015927393 -0.052239373 0.10075616 0.12032975
0000b0 35 b4 7b bc 59 dc 27 bd 9a 03 d9 3c fe 54 3b 3d
       -0.015362789 -0.040981624 0.026490975 0.04573535
0000c0 68 4d 0a 3e 3b ff 32 3d 60 56 13 3e e5 1e 35 3d
       0.1350609 0.043700438 0.14388418 0.044218916
0000d0 9a b7 f9 bc 26 22 ef 3d 8f 10 18 3e f8 05 17 bd
       -0.030483056 0.11676435 0.14850067 -0.036870927
0000e0 ae 51 ac 3d d1 91 6b 3d 12 c2 39 bc 29 39 50 bd
       0.08414017 0.05751211 -0.011337774 -0.050835762
0000f0 a0 a4 e7 bd 6c ec 15 3e 22 06 63 3d aa b2 dd 3d
       -0.113106966 0.14640969 0.05542577 0.10825093

fc3.weight f4 [1, 64]
000000 fd 86 2e bd 14 2c 38 3d 79 18 08 3e e8 d7 df 3d
       -0.042609204 0.04496391 0.13290586 0.10929853
000010 5f 83 4e 3d fc 74 85 bd 09 cd 4e bd 19 3c 89 bd
       0.050418254 -0.065164536 -0.050488506 -0.06700916
000020 6b 15 18 bd ae 65 92 3d 20 0d 6f bd 9a cc cb 3d
       -0.0371298 0.071483 -0.058362126 0.09951134
000030 db 30 b4 3d a7 e8 d8 3d ac 6a 27 3d 1f 73 e5 3d
       0.08798381 0.1059125 0.040873215 0.11203598
000040 4d 2c 9d bd b5 30 09 3e 36 6a e8 3d b2 13 84 3d
       -0.07674465 0.13397487 0.11348383 0.06449069
000050 7b 51 af 3d a5 27 15 3e 40 44 52 3d ef 0b bd bd
       0.08560463 0.14565904 0.05133462 -0.09230792
000060 7b 43 86 3d b1 c2 73 bd 1f e0 1e 3e 7d e7 be bd
       0.0655584 -0.059511844 0.15515183 -0.09321497
000070 5c b6 88 bd 60 60 0e 3e 01 2c a7 3d b2 e8 19 bd
       -0.06675407 0.13903952 0.0816269 -0.03757543
000080 fe 86 f3 3d 70 63 a9 3d 54 a8 de 3d b5 41 b3 3d
       0.11890982 0.08270919 0.1087195 0.08752767
000090 fc 42 86 3c d9 5b a0 bd 49 b4 da 3d 90 19 a3 3d
       0.016389363 -0.078300186 0.10678918 0.0796386
0000a0 cd 40 64 bd 61 be a8 3d 61 6a d0 3d 70 65 ba 3c
       -0.05572586 0.08239437 0.1017654 0.022753447
0000b0 63 44 6e bc 7b fe a9 bc f9 2b 78 3d 53 7b 8f bd
       -0.014542672 -0.020751229 0.06058881 -0.07005944
0000c0 fa 7f 14 3e 60 91 a0 3d 3e aa 7f 3d 8b 4c 94 bd
       0.14501944 0.07840228 0.062418215 -0.07241162
0000d0 22 d2 24 bd 57 3d eb 3d 5c 9c 8d 3d 8c bf b1 3d
       -0.04023946 0.11486309 0.06914589 0.08679113
0000e0 5e a0 ff bc bd e4 75 bd 81 41 03 3e 3c 6a b6 3d
       -0.031204399 -0.060032595 0.12817957 0.08906981
0000f0 83 a3 9f bc 5d dd f7 3d bf dd 8e 3d bc 51 d6 3d
       -0.019487148 0.121027686 0.069758885 0.10464808
