models/model_parameters.pth (torch, 377836 bytes, 7 tensors)

movie_embedding.weight f4 [1683, 32]
0	0xbfd5b99c	-1.6697268
1	0xbf9b4be4	-1.2132535
2	0x3ee87beb	0.45407042
3	0xbf65d743	-0.8978159
4	0xbde14277	-0.10999005
5	0xbfe8db46	-1.8191917
6	0x3f0b68d3	0.54456824
7	0x3f6a6575	0.9156106
8	0xbd9911b2	-0.07474078
9	0xbf8507d1	-1.039301
10	0xbf9315c9	-1.1491023
11	0xbf94aa13	-1.1614403
12	0xbff14675	-1.8849627
13	0xbf26ffb9	-0.6523395
14	0xbe85efb6	-0.26159447
15	0x3fcce02e	1.6005914
16	0x3cf46223	0.029831951
17	0xbed9a6d5	-0.42510095
18	0x3f026b91	0.50945383
19	0x3e7adb1f	0.2449765
20	0xbe2e5efa	-0.17028418
21	0x3f28355a	0.6570641
22	0x3faa167b	1.328811
23	0xbe74994d	-0.23886605
24	0xbf3418de	-0.70350444
25	0xbea21a37	-0.31660625
26	0x3ea853cb	0.3287643
27	0xbef8458c	-0.4849056
28	0xbdcbf429	-0.09958679
29	0xbe3f21ca	-0.18665233
30	0x3eed4f39	0.46349505
31	0x3f4b38f8	0.793838
32	0x3da3abb0	0.07991731
33	0xbffb386f	-1.9626597
34	0x4009003f	2.14064
35	0xbf810eb5	-1.0082613
36	0x3f5241a0	0.82131386
37	0x3f269743	0.6507456
38	0xbf91033c	-1.1329112
39	0x3fd1f883	1.6403965
40	0x3ffb09d0	1.961237
41	0x3f7906ab	0.972758
42	0xbfd780c4	-1.6836171
43	0x3d93106c	0.071808666
44	0x3f7dfddc	0.99215484
45	0xbfcd3a4d	-1.6033417
46	0x3f095ab5	0.5365403
47	0x3f8b3e62	1.0878413
48	0x3facf8a0	1.3513374
49	0xbec8d4b9	-0.39224795
50	0xbe1ab097	-0.15106426
51	0x3f30ffd1	0.69140345
52	0x3f2f9efb	0.6860196
53	0xbfba8800	-1.4572754
54	0xbd82bd63	-0.06383779
55	0xbd04b678	-0.03240058
56	0x3fbdd6ee	1.4831216
57	0xbe6af4da	-0.22944966
58	0xbf25cec3	-0.6476862
59	0x3f9bb9b4	1.2166047
60	0x3ef29515	0.47379366
61	0x3fa4c895	1.2873713
62	0xbf14d2db	-0.5813424
63	0x3ef0b52d	0.47013226
64	0xbfaf73cd	-1.3707215
65	0x3f1eaaf6	0.61979616
66	0x3f2f857a	0.68563044
67	0x3d63bd87	0.05560067
68	0x3f85a28d	1.0440232
69	0x3d1b0a2c	0.037851498
70	0x3f8c9008	1.0981455
71	0xbe2f50be	-0.17120644
72	0xbfc2f332	-1.5230467
73	0x3f9298fe	1.145294
74	0xbe043b71	-0.129133
75	0xbf31c426	-0.69439924
76	0x3f8369e2	1.0266688
77	0xbcad063d	-0.021121139
78	0xbf46257a	-0.77400935
79	0xbd6b528f	-0.05745178
80	0xbf1dbe71	-0.61618716
81	0x3f455ebc	0.7709768
82	0x3eb2b0f3	0.34900627
83	0x40035012	2.051762
84	0x3f1925a1	0.5982304
85	0x40211087	2.5166337
86	0x3f4f8a99	0.8107086
87	0x3eaea4f7	0.34110233
88	0xbd71955e	-0.05898034
89	0xbf333ae4	-0.70011735
90	0x3e9b8f19	0.30382612
91	0x3f0e3afb	0.5555875
92	0x3eb54934	0.35407412
93	0xbe844c48	-0.25839448
94	0x3fe3540e	1.7760026
95	0x3eeb2bbf	0.45931813
96	0x3fb2931e	1.3951147
97	0xbfb97a63	-1.4490474
98	0x3f0c8c99	0.54902035
99	0xbf9cb090	-1.2241383
100	0xbf1f5bbb	-0.62249345
101	0x3f2815cf	0.6565828
102	0xbf392f80	-0.72338104
103	0x3f06cfad	0.5266064
104	0x3f5e43bf	0.8682212
105	0x3e98a571	0.29813722
106	0x3e825f4f	0.2546334
107	0xbf06da2b	-0.5267665
108	0xbe71ac44	-0.2360087
109	0xbeecfe1b	-0.46287617
110	0xbf39dc05	-0.7260135
111	0x3e737524	0.23775154
112	0xbe563a82	-0.20920756
113	0x3fd31b91	1.6492788
114	0x3f0b8a62	0.5450803
115	0x3fb818eb	1.4382604
116	0xbfa6a7c5	-1.3019949
117	0xbfa9bfe4	-1.3261685
118	0xbfb008bb	-1.3752664
119	0xbef17db6	-0.47166222
120	0x3f098515	0.5371869
121	0x3f98bf7d	1.1933438
122	0x3d4baa53	0.04972298
123	0xbf5c24c1	-0.8599358
124	0xbf6c8b13	-0.9239971
125	0xbf837068	-1.0268679
126	0xc0066774	-2.1000643
127	0xbf8d150b	-1.1022047
128	0x3ff32d9c	1.8998294
129	0x3f088c97	0.53339523
130	0xbf24d37c	-0.643852
131	0x3f1f354c	0.621907
132	0x3f1c11be	0.6096457
133	0xbf209c66	-0.62738645
134	0x3f32df8e	0.6987237
135	0xbf2224ec	-0.6333759
136	0xbf764374	-0.96196675
137	0x3f4afe75	0.7929452
138	0x3f025a67	0.50919193
139	0x3f068506	0.5254673
140	0x3e5eb322	0.21748021
141	0x3ee634e6	0.44962233
142	0x3d05d193	0.03267057
143	0x3f8fecb6	1.1244113
144	0x3e0456a0	0.1292367
145	0x3fab6f90	1.3393421
146	0x3facde36	1.3505313
147	0x3e94ce1e	0.29063505
148	0x3f1a270a	0.6021582
149	0x3bb75147	0.005594406
150	0x4009e5e4	2.1546564
151	0x3f77aef9	0.9675136
152	0xbed4ff40	-0.4160099
153	0x3c883b8f	0.016629962
154	0x3f65dd25	0.89790565
155	0xbda893a0	-0.08231282
156	0xbff27b81	-1.894394
157	0xbeabb615	-0.33537355
158	0xbfa80cb1	-1.3128873
159	0x3ef5f03e	0.48034853
160	0x3f81b8fd	1.0134579
161	0xbc163f95	-0.009170433
162	0x3f85344f	1.0406588
163	0x3f100e08	0.5627141
164	0xbed9cacf	-0.42537543
165	0xbf39f9e7	-0.72646946
166	0xbf215ed9	-0.6303535
167	0xbf1da0db	-0.6157357
168	0x3fba5d84	1.4559789
169	0xbfe94e88	-1.8227091
170	0xbf0d3315	-0.5515607
171	0x3f03ddbf	0.5151023
172	0x3f01d9ec	0.5072315
173	0xbeb8476b	-0.35991988
174	0x3e01625b	0.12635176
175	0x3e864242	0.26222426
176	0x3f86e1bc	1.0537639
177	0xbfa14b1d	-1.2601048
178	0xbff130a7	-1.8842973
179	0xbfa7e371	-1.3116285
180	0xbe815ede	-0.2526769
181	0x3f8f9798	1.1218138
182	0x3e64ff1a	0.22362939
183	0x3fa67e45	1.3007284
184	0x4022eea6	2.545816
185	0x3e01e8a6	0.12686405
186	0x3e70fae4	0.23533207
187	0x3f057ae8	0.52140665
188	0xbd0a690a	-0.03379158
189	0x3fa38b22	1.2776835
190	0xbeff5d2e	-0.49875778
191	0xbd233b67	-0.039851572
192	0x3f30cf3d	0.6906622
193	0x3f93d68d	1.1549851
194	0xbee802fa	-0.4531477
195	0x3fd0b738	1.6305914
196	0xbf95fa4c	-1.171701
197	0xbe272e04	-0.16326147
198	0x3f7df02a	0.99194586
199	0x3f5f3c9c	0.8720186
200	0xbf18b85d	-0.59656316
201	0x3f941ed7	1.1571912
202	0xbf79d9bd	-0.9759787
203	0xbc5bb552	-0.013409929
204	0x3f4b50d5	0.79420215
205	0x3fb01938	1.3757696
206	0xbfa4eed8	-1.2885389
207	0x3ff8dd01	1.9442445
208	0xbf76f11a	-0.9646164
209	0xbdc8d92b	-0.098070465
210	0x3eb77b61	0.35836318
211	0x3f82664d	1.018747
212	0xbf1a21ba	-0.6020771
213	0xbefce2a7	-0.49391672
214	0xbfc24cd9	-1.5179702
215	0x3f86170c	1.0475783
216	0x3d52f3bf	0.051501986
217	0x3ec7dbca	0.39034873
218	0xbf328a15	-0.69741946
219	0x3e1e08a6	0.15432987
220	0xbe2959ff	-0.16538237
221	0xbe97fff5	-0.29687467
222	0xbf597494	-0.8494351
223	0xbf9a1db8	-1.204032
224	0xbe0620db	-0.13098471
225	0xbebc289c	-0.36749732
226	0x3e45fc89	0.19334616
227	0xbe111493	-0.14168005
228	0x3f8de4f1	1.1085492
229	0xbea77ad3	-0.32710895
230	0x3f4aece3	0.7926771
231	0x3f5567be	0.83361423
232	0x3dc4504a	0.095856264
233	0xbe77ea4e	-0.24210474
234	0x3f73eea6	0.95286024
235	0xbd8cf56b	-0.06882747
236	0xbfa4d663	-1.2877926
237	0x3f09d2fe	0.53837574
238	0xbf63af84	-0.8893969
239	0x40018fda	2.024405
240	0xbfd3ae2a	-1.6537526
241	0x3fcd9530	1.6061153
242	0xbf0f28b4	-0.55921483
243	0xbfc7e987	-1.5618142
244	0xbfd446ee	-1.6584146
245	0x3e87ab94	0.2649809
246	0x3ec3fe7e	0.382801
247	0xbe332485	-0.174944
248	0x400295b4	2.0403872
249	0x3ec2df4d	0.3806099
250	0xbf7cd8fc	-0.9876859
251	0x3ec8d30d	0.3922352
252	0xbecf1c2e	-0.40451187
253	0xbf06354a	-0.5242506
254	0x3eaa4cd4	0.3326174
255	0xbe1a8788	-0.15090764

user_embedding.weight f4 [943, 32]
0	0xbfbc1475	-1.4693743
1	0xbefd7457	-0.49502823
2	0xbf701785	-0.9378589
3	0x3f4b78fe	0.79481494
4	0xbfbb84f2	-1.4649947
5	0xbfbf5012	-1.494631
6	0x3e89a72f	0.26885363
7	0xbf58ce01	-0.84689337
8	0x3f17bef1	0.5927573
9	0xbf80300f	-1.0014666
10	0xbf8a1791	-1.0788442
11	0x3ef87cef	0.48532817
12	0xbdf24ffe	-0.118316635
13	0x3eb7d180	0.35902023
14	0xbf20d85e	-0.6283015
15	0xbf427fb5	-0.75976115
16	0x3fac3e61	1.3456537
17	0xbc48c47b	-0.012253876
18	0xbefd440c	-0.49465978
19	0xbfe5b400	-1.7945557
20	0xbfded1ee	-1.7407815
21	0xbf33ce0f	-0.70236295
22	0xbf42fcd4	-0.76167035
23	0x3e832ab6	0.25618523
24	0xbe0d975f	-0.13827275
25	0xbe73bf86	-0.23803529
26	0xbd9c73ed	-0.076392986
27	0x3eadcf3c	0.3394717
28	0xbe1c922e	-0.15290138
29	0xbeb29827	-0.34881708
30	0xbbd64c95	-0.006539891
31	0xbf85f54e	-1.0465486
32	0x3f3d1285	0.73856384
33	0x3f556bdc	0.83367705
34	0x3d90c958	0.07069653
35	0x3f857e6a	1.0429204
36	0x3d20cf07	0.039259937
37	0x3ed331f8	0.4124906
38	0x3edf3f76	0.43603104
39	0xbf104e66	-0.56369627
40	0x3e98be34	0.29832613
41	0x3faee9cf	1.3665103
42	0xbee91534	-0.4552399
43	0x3e7bf033	0.24603347
44	0xbe36c50b	-0.17848603
45	0xbf6091cb	-0.8772246
46	0x3f8d8d36	1.1058719
47	0x3ead477a	0.33843595
48	0x3f5a8cef	0.853713
49	0xbee09267	-0.43861696
50	0x3fcb09a9	1.5862323
51	0x3fbb56a9	1.4635822
52	0x40067b08	2.1012592
53	0xbecbdbec	-0.39816225
54	0xbf8f96e4	-1.1217923
55	0x3d71aaf4	0.059000924
56	0x3f796b85	0.97429687
57	0x3eb560a9	0.35425308
58	0xbf995d0c	-1.1981521
59	0xbf4266a1	-0.7593785
60	0x3f344350	0.7041521
61	0x401b3771	2.4252589
62	0xbe84f608	-0.25968957
63	0x3f776a7a	0.96646845
64	0x3fc3f1f0	1.5308208
65	0xbf7912be	-0.97294223
66	0xbfd7b092	-1.685076
67	0xbf9ffff8	-1.249999
68	0xbeb022c1	-0.34401515
69	0xbed6e15f	-0.4196882
70	0xbd77f3e8	-0.06053534
71	0x3fec6d1c	1.8470798
72	0xbd8911f8	-0.066928804
73	0x3fa019c7	1.2507867
74	0xbeca8043	-0.3955098
75	0xbf5600d7	-0.8359503
76	0xbf827ff8	-1.0195303
77	0xbf834790	-1.0256214
78	0xbf168d44	-0.58809304
79	0x3ee9be2c	0.45652902
80	0xbff5f7df	-1.9216269
81	0x3f13f6c3	0.57798404
82	0x3b2ddbff	0.0026528833
83	0x3f7e89c8	0.9942899
84	0xbf81ba9c	-1.0135074
85	0x3d23dfc0	0.040008307
86	0xbed4df59	-0.4157665
87	0x3e8acdae	0.27110046
88	0xbe9d6c46	-0.3074667
89	0xbec02bd1	-0.3753343
90	0xbf97c7e8	-1.1857882
91	0x3fee9bc8	1.8641291
92	0xbe94a5f3	-0.2903286
93	0xbeca7d69	-0.39548805
94	0xbbcaf2a2	-0.006193475
95	0xbfc32a8c	-1.5247359
96	0x3d6a504d	0.057205487
97	0x3f8330ac	1.0249228
98	0xbb656671	-0.0035003687
99	0x3f235d41	0.6381417
100	0x3df9c801	0.12196351
101	0x3e3a79dd	0.1821055
102	0xbf274deb	-0.6535327
103	0xbff7a18f	-1.9346179
104	0x3e4cccfb	0.20000069
105	0x3e8904da	0.26761514
106	0xbf107984	-0.5643542
107	0xc015acea	-2.3386788
108	0x3ec20eda	0.37901956
109	0x3fa13360	1.2593803
110	0xbe4ef858	-0.20211923
111	0x3f11494e	0.5675248
112	0x3f83c127	1.029332
113	0xbd6e5134	-0.05818291
114	0xbf06f92c	-0.52723956
115	0xbd19669e	-0.03745138
116	0xbd1ee032	-0.038788028
117	0x3f50f0fa	0.816177
118	0x3fa4925e	1.2857168
119	0x4012b97b	2.2925708
120	0xbe7d2922	-0.24722722
121	0xc0163cb3	-2.3474548
122	0xbf340422	-0.70318806
123	0xbf2ee53f	-0.6831855
124	0x3fb03d58	1.3768721
125	0x3ede1e23	0.43382367
126	0xbf980097	-1.187518
127	0xbf015529	-0.5052057
128	0x3e0b41fb	0.13599388
129	0x3eb0c85d	0.34527865
130	0x3fce9b0f	1.614107
131	0xbe9315a7	-0.28727457
132	0xbfea076c	-1.8283515
133	0x3e87cae9	0.26521996
134	0x3fb06479	1.3780662
135	0xbf64e9a1	-0.8941899
136	0xbf2f1f8e	-0.68407524
137	0xbf36bb38	-0.71379423
138	0x3f9f822a	1.2461598
139	0xbf9cff99	-1.2265502
140	0x3faab740	1.3337173
141	0xbf8dd831	-1.1081601
142	0xbfc9e865	-1.5774046
143	0xbf82dd41	-1.0223771
144	0xbf0d0ec7	-0.55100673
145	0x3e19dd92	0.15025929
146	0x3f54a29c	0.8306062
147	0x4016ebfd	2.3581536
148	0x3f43b46b	0.7644717
149	0xbf5a18af	-0.85193914
150	0xbf8f4c8a	-1.1195233
151	0xbd6fe3e0	-0.058566928
152	0x3ec9baba	0.39400274
153	0xbf281a56	-0.65665185
154	0xbfac42b4	-1.3457856
155	0xbfc4e39b	-1.538196
156	0x3cf38c30	0.029729933
157	0xbebd3bb8	-0.36959624
158	0xbf927162	-1.1440852
159	0x3fb9c6df	1.4513816
160	0x3f96aad7	1.1770886
161	0x3fc9187b	1.5710596
162	0x3ec2fa34	0.38081515
163	0xbf6a0e66	-0.9142822
164	0xbd552fed	-0.05204766
165	0x3e5249aa	0.20535913
166	0xbd732d91	-0.059369627
167	0x3fb12f41	1.3842546
168	0x3ea09780	0.31365585
169	0xbf812e2a	-1.0092213
170	0x3edfda9d	0.43721476
171	0xbfbb57d4	-1.4636178
172	0xbf7afe4d	-0.9804428
173	0x3eb8af37	0.36071178
174	0xbeb3b3d0	-0.35098124
175	0xbf9fed69	-1.2494327
176	0x3f5cc9e6	0.8624557
177	0x3c919371	0.0177705
178	0x3fb1dda7	1.3895768
179	0x3dadc519	0.08484859
180	0xbf345f60	-0.7045803
181	0x3d36562e	0.04451578
182	0x3eda971d	0.42693415
183	0xbfb4fa9f	-1.4138983
184	0x3fa800d0	1.3125248
185	0xbda0c4c9	-0.07850034
186	0x3f2793c4	0.6545985
187	0xc01ad251	-2.4190867
188	0xbfc15ca9	-1.5106403
189	0x3f61fc6b	0.88275784
190	0xbfa18ebd	-1.2621685
191	0x3f36bf28	0.7138543
192	0xbfdc92ca	-1.7232296
193	0xbf6a4ae5	-0.9152053
194	0x3c930c23	0.017950123
195	0xbec65382	-0.38735586
196	0x3f0b78e1	0.5448132
197	0x3c455daf	0.012046262
198	0xbf142ead	-0.5788372
199	0x3ea91a3b	0.33027825
200	0xbe302955	-0.17203267
201	0x3f1887ef	0.5958242
202	0xbe79cb93	-0.24394064
203	0xbf2b47c6	-0.6690639
204	0x3fb15215	1.3853174
205	0xbff83aee	-1.9392984
206	0xbf742a84	-0.95377374
207	0x3f11c53b	0.56941575
208	0xbf674500	-0.9033966
209	0x3eef757d	0.46769324
210	0x3faa92c2	1.3326037
211	0xbf9bbed7	-1.2167615
212	0x3fc9ce20	1.5766029
213	0x3eab3167	0.33436128
214	0x3f9d1922	1.2273295
215	0x3fe01e35	1.7509218
216	0xbf8f6fa4	-1.1205945
217	0x3fb63a90	1.4236622
218	0xbf13daf4	-0.5775597
219	0x3eb3470c	0.35015142
220	0x3e38d77d	0.18050952
221	0x3f7a278d	0.977166
222	0x3eefb349	0.4681647
223	0xbf067018	-0.5251479
224	0x3e5e10c0	0.21686077
225	0xbf40e788	-0.7535329
226	0xbf815e2d	-1.0106865
227	0xbd8a137e	-0.06741999
228	0x3fb2b25b	1.396068
229	0xbfe43b92	-1.783068
230	0xbee0d20d	-0.43910256
231	0x3f3d49f7	0.73940986
232	0xc007249c	-2.1116095
233	0xbfe273f3	-1.7691635
234	0xbf3c73da	-0.73614275
235	0x3ee0b284	0.43886197
236	0xbf96e4da	-1.178859
237	0xbe543fb1	-0.20727421
238	0xbe3fd83b	-0.18734829
239	0x3eedab53	0.46419773
240	0xbf1968dd	-0.59925634
241	0xbe98621c	-0.29762352
242	0xbe9ef940	-0.31049538
243	0x3fbc8114	1.4726892
244	0x3f3a3da5	0.7275031
245	0xbf5bcf0f	-0.8586282
246	0xbf982328	-1.1885729
247	0x3ee9cfcd	0.45666352
248	0xbf481005	-0.78149444
249	0xbf0f264c	-0.5591781
250	0x3f940f0f	1.1567096
251	0xbd98e06d	-0.07464681
252	0xbf738a10	-0.9513254
253	0xbe0e9253	-0.13923006
254	0x3f1877eb	0.5955798
255	0x3efd1f25	0.49437824

fc1.weight f4 [64, 83]
0	0xbd9e14da	-0.07718821
1	0x3cbe5b06	0.023236763
2	0x3d0ee676	0.034887753
3	0xbbfd5c18	-0.0077319257
4	0xbc9cfb3d	-0.019162768
5	0x3e0cd94b	0.13754766
6	0x3e123aad	0.14280196
7	0xbd7222dd	-0.05911528
8	0x3e167db3	0.14696388
9	0xbd2d408c	-0.042297885
10	0xbd7788c8	-0.06043318
11	0xbdfe83a0	-0.12427449
12	0xbd527278	-0.051378697
13	0x3c420f9c	0.011844542
14	0xbb6600bc	-0.0035095653
15	0x3dfafe27	0.12255507
16	0x3df32020	0.11871362
17	0x3e065519	0.131184
18	0xbcda3c76	-0.026640158
19	0xbd525c73	-0.051357698
20	0x3d51431c	0.05108939
21	0xbd420d98	-0.047376245
22	0xbbc8e6a5	-0.0061310106
23	0xbdded48f	-0.10880386
24	0xbe0e9c84	-0.13926893
25	0xbc9dd460	-0.019266307
26	0x3dc25f20	0.094908
27	0x3d8ba299	0.068181224
28	0xbe25d636	-0.16194996
29	0x3d6f3a68	0.05840531
30	0xbd8dba39	-0.06920285
31	0x3e1a4009	0.1506349
32	0xbd8301cb	-0.06396826
33	0xbe16d8ba	-0.14731112
34	0xbd8fbda3	-0.07018592
35	0xbd58e633	-0.05295391
36	0x3dc72c9e	0.09725307
37	0xbdd769f5	-0.105182566
38	0xbd6b9d03	-0.057522785
39	0x3dd39b60	0.1033237
40	0x3d9eda5b	0.07756492
41	0x3dab9355	0.08377711
42	0xbcafc7a5	-0.021457503
43	0x3de7245e	0.11286233
44	0x3786fa6c	1.6090657e-05
45	0x3a1438be	0.0005654207
46	0x3d87ae4d	0.06625042
47	0xbdaa76c8	-0.08323437
48	0xbddb2926	-0.10701208
49	0xbcb59073	-0.022163605
50	0x3b238d9a	0.0024956227
51	0x3e0f940f	0.14021324
52	0x3e448bf0	0.19194007
53	0x3e23c9f1	0.15995003
54	0x3defa4e0	0.11701369
55	0x3e0dcb0b	0.13846986
56	0xbdf8e71d	-0.12153456
57	0xbdc9a9c9	-0.09846837
58	0xbd9de988	-0.07710558
59	0x3cdc4a87	0.026891006
60	0x3dc4105c	0.09573433
61	0xbdf54b3b	-0.1197724
62	0xbde5b809	-0.112167425
63	0xbc8320b6	-0.016006809
64	0xbcb27904	-0.02178622
65	0xbdcd5fd7	-0.100280456
66	0xbda15224	-0.07876995
67	0x3c4c7d88	0.012481101
68	0xbd46f58a	-0.048574008
69	0xbdc755a4	-0.097331315
70	0xbd383400	-0.044971466
71	0x3c50fdb0	0.012755796
72	0xbda599e8	-0.08085996
73	0xbda55b00	-0.080739975
74	0x3d8311a6	0.063998505
75	0xbd2b57a6	-0.041831635
76	0x3c856f78	0.016288504
77	0x3d943730	0.07237089
78	0xbcfac8bc	-0.030613296
79	0xbd6a2cf6	-0.057171784
80	0xbc081560	-0.008305877
81	0xbcc69a88	-0.024243608
82	0xbd7b54b6	-0.061360084
83	0x3e01e74c	0.12685889
84	0x3d1a7c5b	0.03771625
85	0x3e0c31b3	0.13690834
86	0x3d68d71d	0.056845773
87	0x3d5bb6cc	0.053641126
88	0x3dbeca14	0.09315887
89	0xbe276d38	-0.16350257
90	0x3e1a5d25	0.15074594
91	0xbd7e140c	-0.062030837
92	0xbdf66d12	-0.12032522
93	0xbdaedc74	-0.08538142
94	0xbdd4820d	-0.10376368
95	0x3c6c5507	0.014424569
96	0xbd907f2d	-0.07055507
97	0x3d9f670f	0.07783329
98	0xbe311e24	-0.17296654
99	0xbdfdde22	-0.12395884
100	0x3d80f94b	0.06297549
101	0xba80c6e5	-0.00098249
102	0xbda5ecee	-0.081018314
103	0x3d8928e4	0.066972524
104	0xbdea4ec8	-0.114408076
105	0x3dadcdc4	0.08486512
106	0xbd6f9821	-0.05849469
107	0x3d520e10	0.051282942
108	0x3e0d5ae1	0.13804199
109	0x3dd1d388	0.102454245
110	0xbd9e3c78	-0.07726377
111	0x3cdd7d4b	0.027037283
112	0xbcda8466	-0.02667446
113	0x3bab709d	0.0052319304
114	0x3d61d3a1	0.055133466
115	0xbdbcf6fe	-0.092267975
116	0x3dd8c913	0.10585227
117	0x3dda4b0e	0.10658847
118	0x3cc1723f	0.023614047
119	0x3dfd8716	0.12379281
120	0x3d8521a1	0.06500555
121	0xbcdb4dac	-0.026770435
122	0xbd2c3737	-0.042044844
123	0x3d4f2ba3	0.050578725
124	0x3dffa85c	0.12483284
125	0x3e01df4b	0.12682836
126	0x3d8ba432	0.06818427
127	0xbd1cc100	-0.038269997
128	0xbe0f45be	-0.13991448
129	0x3da5a0c7	0.080873065
130	0x3d3e0575	0.046391923
131	0x3deb0608	0.1147576
132	0xbdc85564	-0.09781912
133	0xbc8e6f61	-0.017387094
134	0x3ab0b5d1	0.001348192
135	0xbd852639	-0.06501431
136	0x3d6b9366	0.057513617
137	0xbd8d4843	-0.068985485
138	0xbd07583d	-0.033043135
139	0x3d9cf186	0.076632544
140	0x3bdc4799	0.0067224023
141	0xbd2e2a2f	-0.0425207
142	0x3dd814bc	0.1055083
143	0x3da68282	0.08130361
144	0x3ccca4bf	0.0249809
145	0x3c9a9323	0.018868988
146	0xbdccacfb	-0.09993931
147	0x3d45cd28	0.048291355
148	0xbdc111e7	-0.09427243
149	0x3d77ae88	0.06046918
150	0x3d4a6890	0.049416125
151	0x3d968bd4	0.07350889
152	0xbc084520	-0.008317262
153	0x3db95af0	0.09050548
154	0x3ddea874	0.10871974
155	0x3cf9cdb0	0.030493587
156	0xbd375340	-0.044757128
157	0x3ca1d3c0	0.01975429
158	0x3d7438b0	0.059624374
159	0xbcf19d90	-0.029494077
160	0xbd3a3916	-0.045464598
161	0xbd0fbcc8	-0.035092145
162	0xbd52cf26	-0.051467083
163	0x3d95a17a	0.0730619
164	0xbd91aadf	-0.07112669
165	0x3c101f58	0.008796535
166	0xbe189275	-0.14899619
167	0xbb25f42d	-0.0025322542
168	0x3d5bda2f	0.053674873
169	0xbd23ab7f	-0.039958473
170	0x3e2e75c3	0.1703711
171	0x3d8223f1	0.063545115
172	0x3c016768	0.007898189
173	0x3d69a417	0.057041254
174	0xbde47848	-0.11155754
175	0xbdb62d30	-0.088953376
176	0xbd8c8be8	-0.068626225
177	0x3d49a42b	0.04922883
178	0x3db967ef	0.09053027
179	0x3e0d9743	0.13827233
180	0x3b9ae86f	0.0047274153
181	0xbb490c0b	-0.0030677344
182	0x3dbfcac7	0.093648486
183	0xbd2c75ed	-0.04210465
184	0x3e1ce798	0.15322721
185	0xbde9583c	-0.113937825
186	0x3d969e24	0.07354382
187	0xbd1883f0	-0.0372352
188	0x3d85a8e6	0.065263554
189	0x3d94ac5a	0.07259436
190	0xbe08838c	-0.13331431
191	0xbe2f5311	-0.17121531
192	0x3ddabe2b	0.10680803
193	0xbcee7f05	-0.029113302
194	0xbe126838	-0.14297569
195	0xbda8f86c	-0.08250508
196	0xbe01e8ee	-0.12686512
197	0x3dbfc3c7	0.093635134
198	0xbe2b2eac	-0.16717023
199	0x3da18d1b	0.07888242
200	0xbdbbd8ff	-0.09172248
201	0xbcad4448	-0.021150723
202	0xbde4e02e	-0.111755714
203	0x3c15b1a5	0.009136592
204	0x3d071345	0.03297736
205	0xbe108283	-0.14112286
206	0x3e535be6	0.20640525
207	0x3bf114ba	0.007357207
208	0x3d6b6edf	0.05747878
209	0xbc6770c0	-0.014126003
210	0x3e20ae7f	0.15691565
211	0xbd64d5cb	-0.05586795
212	0x3d68870e	0.056769423
213	0x3d767a9f	0.060175534
214	0x3dc76bbc	0.097373456
215	0xbdc2c983	-0.095110916
216	0x3dc17f32	0.09448089
217	0xbd2d90d5	-0.04237445
218	0xbdf67eaa	-0.12035878
219	0xbe5009f4	-0.20316297
220	0x3d462ff6	0.048385583
221	0x3d3f182a	0.046653904
222	0x3e1eb038	0.1549691
223	0x3d35cf40	0.044387102
224	0x3d30cbd1	0.043163124
225	0xbe0523c1	-0.1300192
226	0x3e17c088	0.14819539
227	0x3dd5f406	0.104469344
228	0xbbc24305	-0.0059283995
229	0x3d3dedbb	0.046369296
230	0x3a0a6280	0.000527896
231	0xbdaef29e	-0.08542369
232	0x3ce7f360	0.028314292
233	0xbdb863b6	-0.09003393
234	0xbd20f198	-0.0392929
235	0xbd042e9c	-0.032271013
236	0xbc6296c8	-0.013829894
237	0xbda8f91e	-0.0825064
238	0x3d7719a8	0.060327202
239	0xbce37348	-0.027764931
240	0x3cfbb000	0.030723572
241	0xbd54847e	-0.051884167
242	0x3d16c558	0.036809295
243	0x3dd560a8	0.10418826
244	0x3dda5a96	0.10661809
245	0xbda53197	-0.08066099
246	0x3daef24c	0.08542308
247	0x3dac3c60	0.08409953
248	0x3dd263f8	0.10272974
249	0xbddf463e	-0.109020695
250	0x3d3e84f8	0.046513528
251	0x3df30399	0.118659206
252	0xbdfddf56	-0.123961136
253	0xbd5f8076	-0.05456587
254	0x3e0149e7	0.12625848
255	0xbd5a398f	-0.05327755

fc1.bias f4 [64]
0	0x3df637bd	0.1202235
1	0x3de81a99	0.11333198
2	0x3c9995ba	0.018748153
3	0x3ca13997	0.019680781
4	0x3d21fc0e	0.03954702
5	0x3d553ead	0.052061725
6	0x3da9ae9e	0.08285259
7	0x3d76cc44	0.060253397
8	0x3da0a031	0.07843054
9	0x3e07fc0d	0.13279743
10	0x3d1f1713	0.038840365
11	0x3d63e7fd	0.055641163
12	0xbd27b3a4	-0.040942803
13	0x3dfa9c05	0.122367896
14	0x3e28d8ca	0.16488948
15	0x3ce4f947	0.027950896
16	0xbd35b9c0	-0.044366598
17	0x3df283a4	0.11841515
18	0x3d6e850e	0.05823236
19	0x3d5b1232	0.05348415
20	0x3e35d3b0	0.17756534
21	0x3e347c0a	0.17625442
22	0x3dff4878	0.12464994
23	0xbaefd79c	-0.001829851
24	0xbba57a0e	-0.0050499504
25	0x3dbfc30d	0.09363375
26	0xbbc6e83f	-0.0060701664
27	0x3d001ab6	0.031275474
28	0x3e2e57d1	0.17025687
29	0x3d5cc360	0.05389726
30	0x3d5a0ae7	0.053233054
31	0x3e23a59e	0.15981147
32	0x3e2c7c30	0.16844249
33	0x3deb1320	0.11478257
34	0xbd3fad06	-0.046795867
35	0x3deeb8bb	0.11656328
36	0xbb00e513	-0.001966779
37	0x3cb9b294	0.02266816
38	0x3dc3f88e	0.095688924
39	0x3e311a0a	0.1729509
40	0xbd480da1	-0.048841123
41	0x3db5dbb8	0.08879799
42	0x3d6317ce	0.055442624
43	0x3cb3bc44	0.021940358
44	0x3d928038	0.07153362
45	0x3da089a3	0.07838752
46	0x3d824608	0.06361014
47	0x3c4cb1a9	0.012493529
48	0xbde3ab41	-0.111166485
49	0x3cdd847d	0.027040714
50	0x3cbba34f	0.02290502
51	0x3e06f858	0.13180673
52	0x3e00d931	0.12582852
53	0x3b4cbeba	0.0031241612
54	0x3dab904f	0.08377134
55	0x3e1aa593	0.15102224
56	0x3e1f87ab	0.15579097
57	0x3beb8c97	0.0071883905
58	0x3de8156a	0.113322094
59	0xbd917d1f	-0.07103943
60	0x3cdb166e	0.026744094
61	0x3ddffc7a	0.10936828
62	0x3cb12686	0.021624815
63	0x3da8bb5a	0.082388595

fc2.weight f4 [64, 64]
0	0x3dc70183	0.09717085
1	0x3d93536e	0.07193647
2	0xbc7d2aba	-0.015452081
3	0xbd3a9459	-0.04555163
4	0xbd776ff1	-0.06040949
5	0x3d3ce5ce	0.046117596
6	0x3dfe28da	0.124101356
7	0x3cd9605c	0.026535206
8	0x3dbe0223	0.09277751
9	0x3b310d8f	0.0027016138
10	0xbd21498c	-0.03937678
11	0xbd0d0428	-0.03442779
12	0x3e20dc01	0.15708925
13	0xbc2ada5e	-0.010428039
14	0x3d245c07	0.040126827
15	0xbda1ba39	-0.07896847
16	0x3e0ddffe	0.13854977
17	0x3e2dd020	0.16973925
18	0xbd9dcef3	-0.07705488
19	0xbcee9c07	-0.029127134
20	0x3c9426b2	0.018084858
21	0x3e038535	0.12843783
22	0x3e21d7ee	0.15805027
23	0x3dffe9cc	0.12495765
24	0xbd76cbdd	-0.060253013
25	0x3d9ecb85	0.07753662
26	0x3da305a1	0.07960058
27	0x3c372d34	0.011180211
28	0x3e26aea1	0.16277553
29	0x3e1a78c2	0.15085128
30	0x3dbab619	0.091167636
31	0xbd6689ef	-0.056283887
32	0x3d02e69c	0.031958207
33	0x3cecaa25	0.028889725
34	0x3d01da69	0.031702433
35	0x3d0714e9	0.032978926
36	0xbd9acaff	-0.0755825
37	0x3dcf50c5	0.101228274
38	0x3e12b520	0.14326906
39	0x3d994219	0.0748331
40	0xbcf3f515	-0.02977995
41	0x3e0aba74	0.13547689
42	0xbc9355fe	-0.01798534
43	0x3b84ac78	0.00404888
44	0xbd98efa7	-0.07467585
45	0xbd7002df	-0.058596488
46	0xbb5c0be2	-0.0033576419
47	0x3d8b82b3	0.06812038
48	0xbcf0279f	-0.029315768
49	0x3e06909e	0.13141105
50	0x3d651f98	0.055938333
51	0x3d436743	0.0477059
52	0xbcb7b5d4	-0.02242557
53	0x3c2f33b0	0.010693476
54	0x3dcdc8b7	0.10048049
55	0xbca8f6cc	-0.020625494
56	0xbce97ea6	-0.028502773
57	0xbd73e1c3	-0.059541475
58	0xbdad5b93	-0.08464732
59	0x3d0b40ab	0.03399722
60	0xbd95f534	-0.073221594
61	0x3d4decb8	0.05027458
62	0x3d0ddc65	0.034634013
63	0xbc85a927	-0.01631601
64	0x3db81dc8	0.08990055
65	0x3dc4b512	0.09604849
66	0x3d30cd87	0.043164756
67	0x3ca64430	0.020296186
68	0x3e0c884e	0.13723871
69	0x3a604801	0.00085556513
70	0xbc4bbf1e	-0.012435703
71	0x3c319f9e	0.010841278
72	0x3c1eafb2	0.009685444
73	0x3de8a821	0.11360193
74	0xbd0f02cf	-0.034914788
75	0x3d2fcf61	0.04292238
76	0x3df630bb	0.12021013
77	0x3df874f3	0.12131681
78	0xbceecda7	-0.029150797
79	0x3deb0672	0.11475839
80	0x3de4aa42	0.111652866
81	0xbc96e0ce	-0.018417742
82	0xbb2b4ee6	-0.0026139556
83	0xbd14b337	-0.036303725
84	0xbd08995d	-0.033349384
85	0x3e0f5644	0.13997751
86	0xbda46027	-0.08026152
87	0xbb86c8cd	-0.004113293
88	0x3d8f36a1	0.069928415
89	0x3e13b87c	0.14425844
90	0xbd056232	-0.03256435
91	0x3e1c7428	0.15278685
92	0x3e10eb35	0.14152224
93	0x3dd1a3a4	0.1023629
94	0x3c8b9235	0.01703749
95	0x3d553856	0.05205568
96	0x3dd09927	0.101854615
97	0x3deed6ba	0.116620496
98	0xbda4507f	-0.08023166
99	0x3e30d973	0.1727045
100	0xbd490162	-0.049073584
101	0x3e0f28f3	0.13980465
102	0x3d907b57	0.07054775
103	0xbad8e99c	-0.0016549113
104	0xbbbefa1f	-0.0058281566
105	0x3dca76c5	0.09885935
106	0xbdae16a5	-0.08500413
107	0x3d5078ea	0.050896563
108	0x3e0bad44	0.13640314
109	0x3cd09959	0.025463747
110	0xbc55c173	-0.01304661
111	0x3c38b07b	0.011272545
112	0xbd4ed376	-0.050494634
113	0x3e0ae2ab	0.1356303
114	0xbc828edf	-0.015937267
115	0xbd507491	-0.050892416
116	0xbd99e563	-0.07514455
117	0xbc33669a	-0.010949755
118	0xbc1a3e53	-0.009414273
119	0xbd415e2a	-0.047208942
120	0x3e0b9de0	0.13634443
121	0x3d8dec49	0.069298334
122	0x3dd96a2b	0.10615953
123	0x3c9d6192	0.019211564
124	0xbd695876	-0.05696913
125	0x3dac444e	0.084114656
126	0x3ca6ec71	0.020376416
127	0x3de55c09	0.11199195
128	0x3d494c70	0.049145162
129	0xbce4bc5b	-0.027921846
130	0xbde1679e	-0.110060915
131	0x3d906d08	0.07052046
132	0x3d9fa360	0.07794833
133	0xbd835863	-0.06413343
134	0xbe021bba	-0.1270589
135	0xbd205e1a	-0.039152242
136	0x3c5bf42b	0.013424913
137	0x3db7c788	0.089736044
138	0xbd8a2355	-0.0674502
139	0x3d97eaba	0.074178174
140	0xbd549cb5	-0.05190726
141	0xbc8e9604	-0.017405517
142	0x3d8097b8	0.06278938
143	0x3ab58f8a	0.0013851982
144	0x3cdd9f27	0.027053429
145	0x3c1bfff0	0.0095214695
146	0x3d82534d	0.063635446
147	0xbe09916a	-0.13434377
148	0x3c7a3bbe	0.015273033
149	0xbba8f027	-0.0051555815
150	0xbd071ccf	-0.03298646
151	0xbde0e1f3	-0.109805964
152	0x3d016513	0.031590533
153	0xbd96c0c3	-0.07360985
154	0x3dac91bc	0.08426234
155	0xbdd69b71	-0.10478867
156	0xbd37c2f1	-0.044863645
157	0xbc26e204	-0.010185722
158	0xbdd4f9ae	-0.10399185
159	0x3c5dcef8	0.013538115
160	0xbc7b3bce	-0.015334083
161	0x3d3f3855	0.04668458
162	0xbd761a9c	-0.06008397
163	0xbcd5bad3	-0.026090061
164	0xbda30c8e	-0.07961379
165	0x3daf285a	0.08552618
166	0xbc97139d	-0.01844197
167	0xbdf154ce	-0.11783753
168	0x3d276afa	0.040873505
169	0xbd8a2848	-0.06745964
170	0xbe09dae1	-0.13462402
171	0xbd48008d	-0.04882865
172	0x3cb45c52	0.022016678
173	0xbda069c7	-0.078326754
174	0xbcbc8a20	-0.023015082
175	0xbdafb10f	-0.08578693
176	0x3d8f31db	0.06991931
177	0xbd4d76d4	-0.05016215
178	0x3d8f904b	0.070099436
179	0x3bc6844e	0.0060582524
180	0x3d879988	0.06621081
181	0x3da207fc	0.07911679
182	0xbd9d4a7a	-0.07680221
183	0xbddf4d1f	-0.109033816
184	0x3d1b5905	0.037926693
185	0x3bc0c4d0	0.005882837
186	0xbdcd88b9	-0.100358434
187	0x3c49beb0	0.01231353
188	0x3d66c29a	0.05633793
189	0xbbb35c1b	-0.0054736263
190	0x3d0295b1	0.031881038
191	0xbe084307	-0.13306819
192	0xbba9e467	-0.0051846984
193	0x3e28491b	0.16434138
194	0x3dd8ab3c	0.10579535
195	0x3e22a768	0.15884173
196	0x3e122d13	0.14275007
197	0x3d88f236	0.06686823
198	0xbd5fd996	-0.054650865
199	0xbd0cbe92	-0.03436143
200	0x3dc619af	0.096728675
201	0xbbf7ce09	-0.007562403
202	0x3dd05263	0.10171964
203	0x3c16a006	0.009193426
204	0x3e09453a	0.13405314
205	0x3baca125	0.0052682334
206	0xbd54a49e	-0.051914804
207	0xbd85b5a9	-0.065287896
208	0x3d09f0a5	0.033676762
209	0xbd956c48	-0.07296044
210	0x3cdb591f	0.026775895
211	0xbd26ebf7	-0.040752377
212	0x3e23d7d7	0.16000305
213	0x3c35d6f4	0.011098612
214	0xbcb024e6	-0.02150197
215	0x3e22199e	0.15830085
216	0xbd0703ff	-0.032962795
217	0xbda47dfa	-0.080318406
218	0x3e1ee1dd	0.15515848
219	0x3ccc2d79	0.024924027
220	0x3d905372	0.07047166
221	0x3e0e0931	0.13870694
222	0xbc803599	-0.015650557
223	0xbcab0b52	-0.020879421
224	0x3dc68cd6	0.09694831
225	0x3dd2b7e4	0.102889806
226	0x3d80e8e5	0.06294421
227	0x3d0ca01c	0.03433238
228	0x3dd9cedc	0.106351584
229	0x3de65172	0.11246003
230	0xbd5428f7	-0.05179688
231	0x3cbefcf6	0.02331398
232	0x3d91a0fb	0.07110783
233	0x3d8db034	0.06918374
234	0x3e1f9eb4	0.15587884
235	0x3d52182f	0.051292595
236	0x3a3a32b5	0.0007102893
237	0x3dbed72a	0.09318383
238	0x3c882db3	0.016623354
239	0x3d99b211	0.075046666
240	0xbcebc22b	-0.02877911
241	0x3df933b6	0.12168066
242	0x3d8038a9	0.06260807
243	0xbcd5ea8d	-0.02611282
244	0xbbbc6aa4	-0.0057500172
245	0x3dc256ae	0.09489189
246	0x3d807f95	0.06274334
247	0x3d6d2eaf	0.05790585
248	0x3d264e77	0.040602174
249	0x3bc349eb	0.0059597394
250	0x3db20ff7	0.08694451
251	0xbcafb7ea	-0.021450002
252	0x3d93aed1	0.07211078
253	0x3ccf89fc	0.02533435
254	0x3d268d40	0.04066205
255	0x3e212c5b	0.15739577

fc2.bias f4 [64]
0	0x3d027816	0.031852804
1	0x3e003461	0.12519981
2	0x3cb35980	0.021893263
3	0x3dd5eda2	0.104457155
4	0x3d11c946	0.03559234
5	0xbd6d8505	-0.057988185
6	0x3c03eb43	0.008051696
7	0x3e30ca2b	0.17264621
8	0x3e1f58c4	0.15561205
9	0xbd7da7d1	-0.06192762
10	0xbcec386a	-0.028835494
11	0x3d899b10	0.06719029
12	0x3e2e574e	0.17025492
13	0xbd8d7f6a	-0.06909068
14	0x3adb09fb	0.0016711348
15	0x3e182844	0.1485911
16	0xbbdec09c	-0.006797863
17	0xbe03fb66	-0.1288887
18	0xbc494777	-0.012285105
19	0xbabe3128	-0.0014510499
20	0x3db79e03	0.08965685
21	0x3dc80864	0.097672254
22	0x3d8d2fdf	0.06893896
23	0x3d60bd0a	0.05486778
24	0x3b6c0762	0.0036015143
25	0x3ddd4b8e	0.108054265
26	0xbe0b093a	-0.13577738
27	0x3e13288e	0.14370939
28	0x3e0a6260	0.1351409
29	0x3dd93f60	0.10607791
30	0xbd904e2b	-0.07046159
31	0xbd3b0aac	-0.045664474
32	0x3e095c90	0.13414216
33	0xbcf19cfa	-0.029493798
34	0x3e315d05	0.1732064
35	0xbd81f67b	-0.063458405
36	0xbd0cf30b	-0.03441147
37	0xbd99bcf5	-0.07506744
38	0xbc6ab78e	-0.014325989
39	0x3dbf1fc4	0.09332231
40	0x3d880102	0.06640817
41	0x3ce0d016	0.027442973
42	0x3d065ac3	0.0328014
43	0xbdd4d22a	-0.10391648
44	0xbe03f520	-0.12886477
45	0x3db70391	0.08936227
46	0xbba27c27	-0.004958648
47	0xbd253899	-0.04033718
48	0x3c9921b2	0.018692825
49	0x3e31df2b	0.17370288
50	0xbdee2428	-0.1162799
51	0xbde93aec	-0.113881916
52	0x3deddb7a	0.116141275
53	0x3d9244c8	0.07142025
54	0x3d00c8f1	0.031441633
55	0x3d33d431	0.043903533
56	0xbe057cf9	-0.13035955
57	0x3d0aaa07	0.033853557
58	0x3d8ea3fb	0.069648705
59	0x3d9a57d7	0.07536285
60	0xbccbb3f0	-0.024866074
61	0x3c9d2daa	0.019186813
62	0x3d36ad96	0.04459914
63	0xbdb26627	-0.0871089

fc3.weight f4 [1, 64]
0	0x3dcd7940	0.10032892
1	0x3e29014f	0.16504405
2	0xbd1534a7	-0.036427166
3	0x3e27ac58	0.16374338
4	0x3df0b3d4	0.117530495
5	0x3d7629cd	0.060098458
6	0x3dd1f972	0.10252656
7	0x3e26e11e	0.16296813
8	0x3e241208	0.16022503
9	0xbcb8e888	-0.022571817
10	0xbdaaaa4b	-0.08333262
11	0xbd803edb	-0.06261989
12	0x3e21730e	0.15766546
13	0xbd3d9b55	-0.046290714
14	0x3db0fd0e	0.08642016
15	0x3e01d2b2	0.1267803
16	0x3e208bf7	0.15678392
17	0xbd42b469	-0.047535334
18	0xbc62d24a	-0.013844082
19	0x3da77373	0.08176317
20	0x3e15b743	0.1462069
21	0xbdb64e95	-0.08901707
22	0x3be6f93c	0.007048754
23	0x3d939aaa	0.07207234
24	0xbd687e80	-0.056761265
25	0x3e2463c2	0.1605368
26	0xbdc26ebd	-0.09493778
27	0x3d9772ec	0.073949665
28	0x3d4dfbcd	0.050288964
29	0x3d3fc119	0.04681501
30	0xbdd7cfbe	-0.105376706
31	0x3e0c3caa	0.13695017
32	0x3d6e94f7	0.058247533
33	0x3e1ba3b0	0.1519916
34	0x3e26c24b	0.16285054
35	0x3da73078	0.081635416
36	0xbd7d827a	-0.06189201
37	0xbd40cf1d	-0.04707252
38	0xbd1af34e	-0.03782969
39	0x3dfe5649	0.12418801
40	0xbd636a62	-0.055521376
41	0x3da49593	0.080363415
42	0xbcd91f43	-0.026504165
43	0xbcbcbbd9	-0.023038791
44	0xbbdc5633	-0.006724143
45	0xbb7d96c8	-0.003869461
46	0x3e1367f4	0.14395124
47	0x3d307c70	0.043087423
48	0x3de80375	0.113287844
49	0x3d3c9081	0.046036247
50	0xbcde35ef	-0.027125327
51	0xbc4cc773	-0.012498724
52	0x3ca6df5e	0.020370182
53	0x3e07353c	0.13203901
54	0xbd25b8a3	-0.040459286
55	0xbd3704b6	-0.044682227
56	0xbdd02f63	-0.10165288
57	0x3dc261bd	0.09491298
58	0xbca641ab	-0.020294985
59	0x3e2319c9	0.15927805
60	0xbc5a0d5e	-0.013308851
61	0x3e21b5d5	0.1579202
62	0xbd22d91f	-0.039757844
63	0xbb7948cf	-0.0038037782
