models/model_parameters.pth (torch, 377836 bytes, 7 tensors)

movie_embedding.weight f4 [1683, 32]
00000000: 684f 633e 2e52 293f a879 06be 7526 57bf
00000010: 9de2 b9be 77f0 c3bf 5b63 733f dc46 dfbf
00000020: 329b 2abf d316 22c0 e41c b3bf a5f9 e8be
00000030: 16d5 dd3f 83c2 093f a7c3 53be eac0 b4bf
00000040: 4801 3e3e c71f a73f 3acd b1bf 04c3 8f3e
00000050: 818e 523f 370d 933f 69d5 623e 8ee8 b23f
00000060: cab6 14c0 e465 6e3e 538c 4cbf 112b 123f
00000070: 2dfb 973e 16cf 45bf bdf3 0fbf 9be8 cb3f
00000080: d7be ba3f 90a7 223f 3429 9abf 54cb 9bbd
00000090: f791 1fc0 d162 23bd e136 0dc0 aa6b 9c3f
000000a0: c83f 33bc 2e25 01c0 3927 293a ec21 0b3f
000000b0: 6286 07c0 bc2b 0c3f 8e74 fb3f dc63 613e
000000c0: 6f93 eebe 29e8 82bf 0302 f4bd 093e c7be
000000d0: 0806 f53f 856f 56bf bec3 b63f 1b9f b9bf
000000e0: 7fb2 43bf f715 5e3f f1a5 cfbe 7e4c 783e
000000f0: dca6 6ebe f6e3 f9bd 77f7 483e d407 843f
00000100: 0c49 c13f cc98 ffbe d298 1e3f bd5d 87be
00000110: f99d f93d dbae edbe 6a05 02bf a57e 553e
00000120: 151d 503f 1acb 9a3f 4ce6 233f c8c9 f93e
00000130: a727 87be ce3b 07be 44f6 b0bf c03f 97bf
00000140: ed80 3b3f 5628 063f da00 d3bd 50db 3dbf
00000150: 4f90 253f c3b2 4440 6c2c 893f 3d42 c33e
00000160: 08c1 b73f cefc 263f 67eb d0be ad96 043f
00000170: cb4d 5bbe 7f87 80bf 0fb8 3dbe 7d64 643c
00000180: 744f af3f 087a 29bf 66d3 65be 9226 8bbf
00000190: 6096 2dbd 6ab5 e23f f7e0 a23f 6309 c8be
000001a0: 3828 973d 4da4 c5be 1005 8abf 58ac 70bf
000001b0: 4c57 acbf f3f0 95bf 9d33 cb3e d746 8dbe
000001c0: 537e 8c3f f80e 9d3e 45b9 3ebf b39e b73d
000001d0: 5550 f5bf 9530 593f 2311 643e 4d77 f43f
000001e0: 0980 b3bf 4652 773f f623 92be 45e6 7c3f
000001f0: f74c cdbe ac11 43be 0d0e 0c3f 84f0 0bbf
00000200: 0ca5 e83e f0fe 9dbd 5342 bfbe 4656 e6bf
00000210: 9868 973e fc22 1940 5514 09c0 4adc 943e
00000220: 2a02 25be ccc9 f83f 61fc 0fc0 74e8 1d3f
00000230: 5156 37bf eea8 1fbf 625f b53d 1533 0ec0
00000240: b092 b03d 52d5 10be 8142 a0bf e8cb 60bf
00000250: 97c8 ef3e 26c7 05bf 5d78 75bf ad9d e9be
00000260: 9fff 3fbe d8a8 963e 69e8 2bbe 6994 67be
00000270: 9f48 dfbe 759a 233f de6d e4bf 9b6b 17bf
00000280: 20bf e93e 2608 29c0 2db5 ae3f 1fbc 723f
00000290: a3f0 8abf 2028 a33d b737 b6be 69c2 c63f
000002a0: 400d 113f 04df d23e 3141 45bf 8e90 543f
000002b0: db9d f73f 20bc b5bd 7e6a 4dbf bf45 993f
000002c0: 2823 2ebc 54f5 b2be a5aa 10bf 062e 123f
000002d0: 1637 e0bf 46d5 853e 0871 1bbf b085 a93d
000002e0: 0cc8 3c3e ba75 1f3f aaff f73e fb13 62bf
000002f0: 0db9 02be 087b 2f3f 47d6 10bf 6340 823e
00000300: b0a6 723f a1c1 c6be 5d84 a2be 20ea 8e3f
00000310: 6c4b 1d3d b293 323e 29a0 56bf e61c eb3f
00000320: 838c 3b3f 0d63 24bf a56d 81bf 0ddc c23f
00000330: 3b67 0b3d 6a57 abbf 3c5b 8ebf 9a39 88bf
00000340: a2d1 acbe 2bcc 30be d0a8 5f3f d36b b9be
00000350: aa1f 203e d3f4 f13f a3d6 1e3f 6fa9 20bf
00000360: 72ad 9f3f 145a b9be f6a4 053f 8e79 d83e
00000370: 7439 603b e6f8 94bd fd4c 73bf b1c8 edbf
00000380: b898 a2bd 5c25 89bf a0a5 99bf ee57 093f
00000390: e8a2 7bbf 1fc9 d23e c3c9 9d3e 83b9 02c0
000003a0: 83e1 d33e 1196 13bf c77d 09bf d20f a0be
000003b0: 9220 333c a11b 1abf 0426 983f 5092 76be
000003c0: 4d9c f53e 6ab0 bf3e d835 183e 3a34 4d3f
000003d0: 08b0 13c0 c2f0 4a3f 44b8 96bf 9889 9d3e
000003e0: f02e 8abf 84a8 8abe 4975 623f 8d94 d63c
000003f0: 687f bb3b f3f6 7bbf 3b16 b8bf 9388 483e
0.2219826 0.6614102 -0.13132346 -0.84043056 -0.36305705 -1.5307759 0.9507348 -1.74435
-0.6664306 -2.532643 -1.3993192 -0.45502964 1.7330654 0.53812426 -0.20680104 -1.4121373
0.18555176 1.3056573 -1.3890755 0.28078473 0.82248694 1.1488408 0.22151722 1.397722
-2.3236566 0.23281056 -0.7990162 0.57096964 0.2968382 -0.77269113 -0.5623129 1.593036
1.458949 0.6353693 -1.2043824 -0.07607141 -2.493284 -0.03988916 -2.2064745 1.2220356
-0.0109405 -2.0178943 0.0006452683 0.54348636 -2.117577 0.54754233 1.9644945 0.2201075
-0.46596858 -1.02271 -0.11914446 -0.38914517 1.9142466 -0.83763915 1.4278486 -1.450168
-0.7644424 0.86752266 -0.4055629 0.2424793 -0.2330584 -0.12201683 0.1962565 1.0314889
1.5100417 -0.49921262 0.61951935 -0.26438704 0.12188334 -0.46422467 -0.5078951 0.20849092
0.81294376 1.2093232 0.6402328 0.4878676 -0.2639744 -0.13206407 -1.3825154 -1.181633
0.732436 0.524053 -0.10302897 -0.7416277 0.6467332 3.0734107 1.0716681 0.38136473
1.4355783 0.652295 -0.40804598 0.51792413 -0.21416394 -1.004135 -0.18527244 0.013939974
1.3696122 -0.6620183 -0.22443923 -1.0871146 -0.042379737 1.7711613 1.2724904 -0.39069661
0.07380718 -0.38601914 -1.0782795 -0.94012976 -1.3464141 -1.1714157 0.39687815 -0.2759311
1.0976051 0.30675483 -0.7450145 0.08965816 -1.916514 0.84839755 0.22272162 1.9098908
-1.4023448 0.96609914 -0.2854306 0.98788863 -0.40097782 -0.1904971 0.5470894 -0.5466387
0.4543842 -0.07714641 -0.3735529 -1.7995079 0.29571986 2.3927603 -2.141866 0.29074317
-0.16114107 1.9436584 -2.249779 0.6168282 -0.71616083 -0.6236714 0.088560835 -2.2218678
0.086217284 -0.14143875 -1.2520295 -0.87811136 0.46832725 -0.52257 -0.95886785 -0.4562811
-0.18749855 0.29425693 -0.16787876 -0.22615208 -0.43610093 0.6390756 -1.7846029 -0.5914857
0.4565363 -2.6411223 1.364904 0.948183 -1.0854686 0.079666376 -0.35589382 1.5528079
0.5666084 0.41185772 -0.770526 0.8303307 1.9345049 -0.088737726 -0.8024062 1.197441
-0.010628499 -0.34952796 -0.5651038 0.57101476 -1.7516811 0.26139277 -0.60719347 0.08277452
0.18435687 0.6228901 0.48437244 -0.8831174 -0.12765904 0.68547106 -0.5657696 0.25439748
0.94785595 -0.38819602 -0.3174161 1.1165199 0.038402006 0.17439154 -0.83838135 1.8368194
0.7326128 -0.6421364 -1.0111586 1.5223404 0.034033995 -1.3386052 -1.1121593 -1.0642579
-0.33753687 -0.17265384 0.8736696 -0.36215076 0.15637079 1.890284 0.6204626 -0.62758535
1.2474806 -0.36201537 0.52204835 0.4228024 0.0034213932 -0.07274036 -0.9503935 -1.8576871
-0.07939285 -1.0714526 -1.200367 0.53649795 -0.9829545 0.41169068 0.30817994 -2.0425727
0.4138299 -0.5765086 -0.53707546 -0.3126207 0.010933058 -0.6019841 1.1886601 -0.24079251
0.4797081 0.3743928 0.1486429 0.80157816 -2.307619 0.7927362 -1.1774983 0.30769038
-1.0795574 -0.27081692 0.8846021 0.026193881 0.005721975 -0.9842369 -1.4381784 0.19583349

user_embedding.weight f4 [943, 32]
00000000: 20b3 32bf ae20 cf3f 5b88 933f 6882 ffbe
00000010: c7a1 573f ef21 a8bc 8e26 55be 6db9 cbbe
00000020: 8ceb a03e 6d74 c2bd a24f 253f 415c dd3f
00000030: 952c b0bf bcfd 333f 53c1 b83f 5ca5 883e
00000040: 135b 2fc0 76b1 41bf f5dd afbe 6bb0 0440
00000050: 4853 97be b27a 9d3f c91a d43f cf9d 483e
00000060: 9f5f a03d a6c3 a73f bb37 983f f88e b73e
00000070: 07ac 573f 3b56 5cbf 2cb4 3abf 154b 6f3e
00000080: d93c 983f 3e39 c4be 84cb 023f 26df 913f
00000090: 840e 533f bf15 c73f 3ed2 2c3e c719 c3be
000000a0: e5ff c93f b576 723e 8148 863e 92d1 91bf
000000b0: 38d4 b73e 4f87 143f 0391 dabe dfbe 313f
000000c0: df48 07c0 179d b1bf cc7a 97bf a2e3 68bd
000000d0: 90cd a13f 488b 1240 e6a3 ce3f 32d4 d63e
000000e0: 554a 01bf d622 98bf d453 a9bf ee17 803f
000000f0: d8af cdbf 672f 1bc0 4a5e 54bf d6e5 58bf
00000100: 8e38 e8be ffb9 d1be 4ea6 88be 0700 9c3f
00000110: 9607 523d a388 7b3e 888d 1fbf e9bf 583f
00000120: e4df 06bf d507 f8be 5591 023f 455a d33f
00000130: 7f43 be3f 526c 8abf 6328 33bf 3a92 9a3f
00000140: 043f b9bf 6913 153f 575d 99bf 7b38 24be
00000150: 956a 073f 0ffa df3e 08e1 b43f e73a a43f
00000160: c6c4 42be 18b0 843e 3bf5 553f 9ccd 72bf
00000170: 0cdc 86bf 3e7e f63e 87e4 ac3f d298 6f3f
00000180: 363b 36bf e967 c2bf beae 70bf a137 bebc
00000190: 2bbe 833f 7e5e ddbe f822 d93e 6a5e 14c0
000001a0: 84f0 0440 52f2 3e3f 76ff d33e 28ed 833f
000001b0: 331e 4cbf 53a0 633e 3c1c 0cbe 6942 3dbf
000001c0: 9aea debe 46e5 5ebe 394c 79bf bf2d 903f
000001d0: 7625 b63f d9d4 b43f d272 9f3d 1df3 5d3f
000001e0: bdad 993f 1237 f83c 2cb5 6ebf d8f3 d7be
000001f0: d1b2 d33f 8fe7 af3f 0915 54bf 8f68 1a3d
00000200: a189 8fbf 3b60 57bf 08f6 993e c368 a73f
00000210: 610f 0640 b156 553f 8980 453f c28b a23f
00000220: c9af 923e 8184 07be 27f3 f6bd d6d8 82bf
00000230: ea28 d1bf ff2d 2c3e b79e a33f 032f 28be
00000240: fbd1 ce3f 6f29 dd3e 114b a63f f413 ebbf
00000250: b926 08c0 b87d f7bd fef3 bfbe bd64 2dbf
00000260: d022 be3f b708 803c cc8b 4abf d4a8 f73e
00000270: b9c8 753e 5ba9 2ebf 4626 db3d 7ad1 8f3e
00000280: cab2 1740 f7e5 f7be cb79 acbf 3239 ed3e
00000290: 7e31 803f d968 44bf 9b0f 8b3f c9f7 99bf
000002a0: b63d e1bf ae87 26be 5248 f7be f9fe 443f
000002b0: 2741 943d 8136 993f 80d5 46bf 5a8c 52be
000002c0: b0b8 a2be 6fce 583e 7910 0ebf 52c4 613f
000002d0: 7ae2 3dbe 7c26 75bf 818d 25c0 15cd e03f
000002e0: 5abd 143e fd4d b63f 7236 ef3e 0fec 3bbf
000002f0: 8451 c13e 1636 41bf 98a6 8dbf e3f1 92bf
00000300: 2e80 7d3f a5e3 603f 2594 eabe 7762 78bf
00000310: 6736 503e bf40 8cbf 3a76 be3e 2f16 08bf
00000320: e038 bcbf e949 f83f 85f7 1f3f b9d9 853e
00000330: 4d0e 90bf 576a 363f f192 c8bd 5b5f 2ebe
00000340: 0aa6 da3d d282 083e e35d c2bf 65c4 e63e
00000350: b99d e43f a9f2 433f 0403 a63f f365 1e3f
00000360: 8195 f9bf 20b8 5dbf d13a 75be e59f 9abf
00000370: 807d 1640 c49c 783e df25 fb3e 6604 ad3f
00000380: e020 9abf 415a 533f 4ce2 2e3f cbe7 81be
00000390: b067 b1be 4cc2 b33f c5a3 e3bf a741 c9be
000003a0: e5b2 713f 2236 ee3e e8f7 10be 529f 12be
000003b0: 220c debf 8646 d2bf bac0 a0bf cc1e 06bf
000003c0: c848 0440 d6b9 803e 09a2 cb3f eff7 8dbe
000003d0: 2e55 ab3f 7636 5dbf 7e01 3dbe 790d 863e
000003e0: d7e5 21bf b0b0 83bf 005c 0fbc 6979 56be
000003f0: 110f bd3f 1418 bd3f 0bbe 683e e497 cebf
-0.69804573 1.6181848 1.1525987 -0.4990418 0.8423123 -0.020523993 -0.20815489 -0.39789906
0.31429708 -0.09494863 0.64574635 1.7293779 -1.3763605 0.7030904 1.4433998 0.2668866
-2.7399337 -0.7566141 -0.34349027 2.0732677 -0.29555726 1.2303069 1.6570674 0.19591449
0.07830738 1.3106582 1.1892008 0.35851264 0.8424687 -0.8606908 -0.7293117 0.23368485
1.1893569 -0.38324922 0.5109179 1.1396224 0.82444024 1.5553511 0.16877076 -0.38105604
1.5781218 0.23678096 0.2622719 -1.1392081 0.35904098 0.58018965 -0.4268876 0.6943187
-2.1138227 -1.3876065 -1.183435 -0.056857713 1.2640858 2.289751 1.6143768 0.41958767
-0.50504047 -1.1885631 -1.3228707 1.0007303 -1.6069288 -2.4247682 -0.82956374 -0.847257
-0.45355648 -0.40962216 -0.2668938 1.2187508 0.051276766 0.24563842 -0.62325335 0.8466783
-0.5268538 -0.48443475 0.5100301 1.6511923 1.4864348 -1.0814307 -0.699835 1.2075875
-1.4472356 0.5823274 -1.198161 -0.1603717 0.52897006 0.43745467 1.4131174 1.2830476
-0.19020376 0.259156 0.83577317 -0.94844985 -1.0535903 0.4814319 1.3507241 0.9359256
-0.711841 -1.5187961 -0.94016635 -0.023219885 1.029241 -0.43236154 0.42409492 -2.3182626
2.07718 0.745885 0.4140584 1.0306749 -0.7973358 0.22229128 -0.13682646 -0.7392946
-0.43538362 -0.21767148 -0.9738193 1.1263961 1.4230182 1.4127456 0.07785572 0.86699086
1.2006146 0.030299697 -0.93245196 -0.42178226 1.6538945 1.3742541 -0.828446 0.03769737
-1.1213876 -0.8413121 0.3007052 1.3078846 2.0946887 0.83335406 0.77149254 1.2698901
0.28649738 -0.1323414 -0.120580964 -1.0222423 -1.6340611 0.16814421 1.2782811 -0.16424184
1.6157831 0.43195674 1.2991658 -1.8365464 -2.1273634 -0.12084526 -0.3749084 -0.6773184
1.4854374 0.015629156 -0.79119563 0.48370993 0.24002351 -0.68227166 0.107006595 0.28089505
2.3702874 -0.48417637 -1.3474668 0.463327 1.0015104 -0.76722485 1.0864137 -1.2028743
-1.7596958 -0.16262695 -0.48297364 0.7695156 0.07238989 1.1969758 -0.77669525 -0.20561352
-0.3178153 0.21172498 -0.55493885 0.88190186 -0.18543425 -0.9576185 -2.5867617 1.7562586
0.14525357 1.424255 0.46721226 -0.7340707 0.37757504 -0.75473154 -1.1066465 -1.1480068
0.9902371 0.8784736 -0.4581615 -0.97025245 0.20333253 -1.0957259 0.37199575 -0.5315885
-1.4704857 1.9397556 0.6248706 0.26142672 -1.1254364 0.7125601 -0.09793652 -0.17028563
0.10676201 0.13331154 -1.5184902 0.45071712 1.7860633 0.76542145 1.296967 0.6187431
-1.949875 -0.8660908 -0.23948218 -1.2080046 2.35141 0.24278551 0.4905233 1.3516967
-1.2041283 0.8255959 0.6831405 -0.25372157 -0.3464942 1.404367 -1.7784353 -0.393079
0.94413596 0.46525675 -0.14157069 -0.14318588 -1.7347453 -1.6427772 -1.2558815 -0.5239074
2.0669422 0.25141782 1.5908824 -0.2772822 1.338537 -0.86411226 -0.184576 0.26182154
-0.6324133 -1.0288296 -0.008749962 -0.20944752 1.4770223 1.4772973 0.22728746 -1.6140103

fc1.weight f4 [64, 83]
00000000: ce8b 033e 6e6e e4bd d8d6 7cbd 0c04 a33d
00000010: 764f d7bd 43a7 283d 98f9 943d 498c d1bd
00000020: 8c4d 813c fc09 cabd 0d01 2e3d b516 c73d
00000030: aeaa 183e 876f f9bd cd86 bd3c 1a3e ec3d
00000040: 02aa 693d 425b 4c3d eea5 033e 431d 453d
00000050: 612a 2a3d b5c5 c63c 5b0a 3cbc 6cbc 183e
00000060: ceaf f43d 9930 983d c1ac 633d cc91 56bd
00000070: 1dbd 383d ef9d 88bd f521 e93d 5dd5 183e
00000080: d307 053e 092e 883c 44c4 003e c597 06be
00000090: b094 4a3d dbfe 183d 4967 9a3d 9ba0 fb3d
000000a0: 3dbb bcbd a0e3 e73d d556 c73d e8a7 ee3d
000000b0: d901 44ba 6790 163e 03eb 9b3d a482 283e
000000c0: 626a 1c3e ae6b d03d 1844 b03c 77d3 883d
000000d0: fc7d 41be 0f35 043d 93e8 eebc 6489 113c
000000e0: 2de2 14bc 5823 c13d ed1a 0abc 1dd6 ef3d
000000f0: 6c27 02bd e6ba 023e 0be2 cebb 2fc5 09bd
00000100: a881 923d 7087 9ebc b46b 87bd 2073 80bd
00000110: e011 673c e52d cebd 40a2 523d e019 8dbc
00000120: 30e4 413d ae58 ce3d f048 ad3c 7081 b4bb
00000130: 0060 7938 e891 bbbd 52cc cf3d 10c3 b43c
00000140: aa1b 9abd 988a 0c3c cfc8 4ebd 4686 8ebd
00000150: fce5 aebd e787 a6bd 9bec 853b 49d4 bcbd
00000160: c389 a03d 3d53 9bbd d31c 7dbc 2dde 503d
00000170: 0126 113c 62f0 843c fb4b f7bd 1237 083c
00000180: b9df 643d 7090 2abd f606 c53d b347 4c3d
00000190: c3d5 06bd 7bf6 453b fa32 d5bd bea1 99bd
000001a0: e534 063d 26a5 e7bc 34b5 013c 0ba1 bbbd
000001b0: bc6b 813c 2f8f 06bd 6b14 c2bd 46c2 2dbd
000001c0: e374 333d 6ccd f63c d236 d73d f5f4 a5bd
000001d0: 3827 083d 4e5d ab3a 1bc9 d1bd ea43 723c
000001e0: 6be4 fa3c a2e4 7dbc 96ff 3b3d 5350 0dbc
000001f0: c2fc b53d f90a dd3d 7968 26be 12c7 593d
00000200: 3df1 2a3e 5d64 133d 139f d53d 4f16 9bbb
00000210: 746c 76bb 03ee 103e 2609 483d cfca f5bd
00000220: 2caf 7d3d 0bf6 3f3b df57 c8bd 0fd3 f03d
00000230: 70a5 203c f7f6 ad3a 96c1 79bd 397a 893d
00000240: f364 2fbd 379b 343e d18c 09bd f861 93bd
00000250: 4cd2 6c3d 6050 a23b 8c3f 473d 6846 403d
00000260: 0064 93bb fca8 1d3d 8581 c9bd 729a 8dbd
00000270: 2446 063d 1c8a a73d c46e 403d e8a4 2cbd
00000280: 0e56 e03d dccd 913d 2894 9dbd ccca b9bc
00000290: 4a3a 9a3d b80f 5e3d 4e2a 803c 9acc baba
000002a0: ea6e 243d 734e 403e 50ed cb3d 0813 3abd
000002b0: e7de 04be 7ec5 c43d d809 a6bd 51b5 ddbd
000002c0: b71d 82bd a708 08be 01a8 b9bd 8106 8cbd
000002d0: 20f4 6e3c cd09 c43d f7e7 dabc 92ac 813d
000002e0: 4310 4cbc 6719 5fbd 42c7 c63d b57c 0d3d
000002f0: 4019 84bd 16c2 823c 22a8 9f3d 6740 8c3d
00000300: aaa4 df3d 8acd 503d ee07 b9bc 78ea df3d
00000310: d6c4 6a3d 017e 5ebd 0389 6bbd ee5c e4bd
00000320: 16a0 4dbd a615 fcbd ed23 bc3d 6d50 29bb
00000330: a9a0 9c3c 415e 16be 5bb7 743d dc65 21be
00000340: 8880 223c 079d 873d 091e 86bd 9d00 acbc
00000350: 2444 eb3b 9845 f23b 47b3 493d 564e 22be
00000360: 895d 3a3d a468 863d b3de 4ebd 07c7 03be
00000370: bc71 92bc 53a4 44be efdd 70bd b709 dfbd
00000380: b119 ca3d 6a7c 2ebd 6c2f 973c ffa0 b73b
00000390: a39d a1bd a443 af3d 740b 92bd f867 2b3c
000003a0: 60a9 bcbc 2401 793d 5a78 30bd 4e98 ae3d
000003b0: 68fe c03c ae33 c13d 441e 3f3d c84c 9dbd
000003c0: 9869 dd3c 202d 81bb 27c4 cabd 8003 dcbd
000003d0: 9797 48bd e0fb 00bd 5e63 aa3d 00d6 17bb
000003e0: e001 79bb 2175 393d 5b51 e83d 0a4f 57bd
000003f0: 59ff 20bd 5bb9 9cbd d690 ce3d 924f f83c
0.128463 -0.11153875 -0.06172833 0.07959756 -0.10513203 0.04117514 0.07274169 -0.102318354
0.015784048 -0.098651856 0.04248147 0.09721128 0.14908859 -0.12179475 0.023135567 0.115352824
0.057046898 0.049891718 0.12856266 0.04812361 0.041544322 0.024264196 -0.011477078 0.14915627
0.119475946 0.07431144 0.055584673 -0.052385136 0.045102227 -0.066707484 0.1138343 0.14925142
0.12991266 0.016623514 0.1257487 -0.13143833 0.049458206 0.037352424 0.07539231 0.122864924
-0.092154 0.11322713 0.09733359 0.11653119 -0.0007477082 0.14703523 0.07613184 0.16456085
0.15274957 0.10176788 0.021516845 0.06680959 -0.18895715 0.032277163 -0.029163634 0.008882854
-0.009087128 0.094305694 -0.008429271 0.11710761 -0.031775877 0.12766609 -0.0063135675 -0.033635315
0.07153636 -0.019351691 -0.066123396 -0.06271958 0.014103383 -0.100673474 0.051424265 -0.017224252
0.047336757 0.10075508 0.021152943 -0.005508594 5.9455633e-05 -0.09158689 0.10146393 0.02206567
-0.07524808 0.008577965 -0.050484475 -0.069592044 -0.0853996 -0.0813139 0.0040870435 -0.09220178
0.07838776 -0.07584236 -0.015448767 0.050993133 0.0088591585 0.016227905 -0.12075039 0.008313911
0.05587742 -0.041641653 0.09620468 0.049873065 -0.032918703 0.0030206728 -0.10410114 -0.07501553
0.032765288 -0.028276991 0.007916737 -0.09161576 0.015798442 -0.032851394 -0.09476551 -0.0424216
0.043812644 0.03012725 0.10508503 -0.081033625 0.033240527 0.0013074072 -0.10243436 0.0147867
0.030626496 -0.015496405 0.045898043 -0.008625108 0.088861 0.107931085 -0.1625079 0.053168364
0.16693588 0.035984386 0.104307316 -0.004732884 -0.0037601264 0.14153294 0.04883685 -0.12001573
0.061934635 0.002929094 -0.09782385 0.11759006 0.009805068 0.0013272454 -0.060975634 0.06712765
-0.042820882 0.17637335 -0.03358156 -0.071964204 0.057817742 0.004953429 0.048644587 0.046942145
-0.004498005 0.038491234 -0.09839157 -0.06914224 0.032781735 0.08180639 0.046980634 -0.042149454
0.10953914 0.07119343 -0.07694274 -0.022679709 0.07530649 0.05421421 0.015645172 -0.001425165
0.04014484 0.18779926 0.09957373 -0.045428306 -0.12975655 0.09607981 -0.08107346 -0.10825599
-0.06353324 -0.1328455 -0.09065247 -0.06837178 0.014584571 0.09572182 -0.026721938 0.06331743
-0.012455049 -0.054467585 0.09705974 0.034542758 -0.064501286 0.015961688 0.07795741 0.06848221
0.10920079 0.050977267 -0.022586789 0.10933393 0.057316624 -0.054319385 -0.05750371 -0.111505374
-0.050201498 -0.123088166 0.0918654 -0.002583529 0.019119577 -0.14684393 0.059745174 -0.15761513
0.00991834 0.066217475 -0.065486975 -0.020996386 0.007179754 0.00739355 0.049243238 -0.15850195
0.04549936 0.06562927 -0.05050535 -0.12868892 -0.017876498 -0.1920331 -0.058805402 -0.10890525
0.098681815 -0.04259912 0.01845523 0.005603909 -0.07891395 0.08557823 -0.07131091 0.0104618
-0.023029983 0.060792103 -0.043083526 0.085251436 0.02355881 0.09433685 0.046659723 -0.076806605
0.02702789 -0.003942147 -0.09900694 -0.10742855 -0.048972692 -0.031490207 0.08319734 -0.0023168325
-0.0037995502 0.04527772 0.11343642 -0.052565612 -0.03930602 -0.07652541 0.10086219 0.03031138

fc1.bias f4 [64]
00000000: ce98 c13d 5dd5 e93d 5454 813c 20bf c33c
00000010: 9524 01bd 6a91 8c3d 1eb3 c63d 498d 0f3e
00000020: 857e 9c3d f0c4 ee3d ae19 93bd 972a a43d
00000030: d0f1 093e 8af9 2a3d 967f 243e 99ac fb3d
00000040: 55c7 fc3c c296 0a3d 3832 cfbb 5317 043e
00000050: 3174 a83d a5cf 74ba 68cd 0c3c d207 a83c
00000060: 9fa7 0e3e 9ef7 3a3e 5f0c 8db9 10f9 063e
00000070: c046 8fbb d765 4fbd 2ebb 9ebc 8b40 d5bc
00000080: c5b4 023e 1de9 843d b208 103e 568b d13d
00000090: 7a1e 85bc 68fa c63c 3e0a 0ebc 7be6 1a3d
000000a0: 0085 e93d 8d14 bf3d d39e 9d3b fc38 d43d
000000b0: 1a84 b93d 3898 2a3e c25a c33d 54cf 013e
000000c0: 9c4b 183d 90e8 91bc 11b2 9a3d b256 1d3d
000000d0: a23f ac3d 9c9a e03c 9d8a 2a3e 90af f6bc
000000e0: 0494 123e 38a9 1f3e 8d25 aa3c 6bac 7f3b
000000f0: 717b f7bc 49d3 7f3d 63c5 ef3d 6d26 1dbd
0.09452973 0.11417649 0.015787281 0.023894846 -0.031529028 0.06863673 0.09702133 0.1401874
0.07641319 0.116586566 -0.071826324 0.08015936 0.1347115 0.041741885 0.16064295 0.1228878
0.030856768 0.03383518 -0.006323125 0.12899522 0.08225287 -0.0009338803 0.008593895 0.020511542
0.1393113 0.18258521 -0.00026902833 0.13180947 -0.0043724477 -0.05063423 -0.019376364 -0.026031753
0.1276427 0.06489775 0.14065817 0.10231654 -0.016249884 0.024289325 -0.008669434 0.03781746
0.11402321 0.093300916 0.004810193 0.103624314 0.090583995 0.1665963 0.09538795 0.12676746
0.03718148 -0.01781109 0.07553495 0.038412757 0.084105745 0.027417473 0.1665444 -0.030113012
0.14314276 0.15591896 0.020769859 0.0039012681 -0.030210229 0.062457357 0.117075704 -0.038366724

fc2.weight f4 [64, 64]
00000000: 7e36 c03d 1986 1d3d c5c7 37bc a19d eb3d
00000010: fd83 0f3e e497 003e 1540 923d 9c3c cebb
00000020: fc19 d23d 3a8a 763b 3fd8 f1bb 194f bcbc
00000030: 7e68 9dbd b112 8abd 3439 2e3e 14a7 073e
00000040: 354f 2a3d 2428 253e 06f4 8dbc 3003 ff3b
00000050: 8225 d0bc 42a7 de3d c967 ca3d 42ef 303e
00000060: 8dec b73d 81dd 8c3d 334d 203d 4477 84bd
00000070: 3138 473c 53b5 78bd d018 4bbd 44fb cc3a
00000080: b3a1 973d 31a8 da3c c12f 613d ed19 0e3e
00000090: 4fcf ce3d 8698 c03d cbfb 7fbb 4bf1 fd3d
000000a0: fb77 433c 3cd0 f63d 2d90 223e fc07 c33c
000000b0: 9731 fa3d 2ff7 ff3d 7bf0 21bd 33ef 163e
000000c0: 42d1 c93d a967 fc3d a834 fa3d 809f a6bc
000000d0: 2747 163e ecc2 bd3c d4c9 073e a87d c23d
000000e0: 3e74 293b fa49 283e 0e83 123e 32c9 a43d
000000f0: 12a7 6b3d 515d 223d 5f3c d3bc 8e6e cf3c
00000100: 3c95 013e 1bb7 38bd 9763 333e 425d ae3d
00000110: 0957 b03d cd26 2c3e ad07 973c fc65 d13d
00000120: b9db aa3c c749 cb3c 382a 4a3c 8304 f13d
00000130: bfd7 3fbc d16a 153e a75c e93c c1fe ea3d
00000140: 5fad d53d 4027 70bd 59b7 55bd 0953 6e3d
00000150: d7e8 e13d f5d7 1cbd 6cd8 44bd 8fa5 f0bb
00000160: 143f d03d b41c 513d 458b af3d a1ed 943c
00000170: 1dfa 7cbd c45a 063d 41d9 853d 2a77 4cbd
00000180: 9725 54bd 795a 03bd fe7f b9bc 2c94 8c3a
00000190: 67c2 bbbd 30d1 0e3e 28a2 643d ee1b 193e
000001a0: dbfa 73bd d6ca 793c 7012 53bd 5f83 003e
000001b0: 9233 7a3d a850 823c ac11 20bd 2c46 9d3d
000001c0: e9fe 5c3d 8027 833d f0da 8dbd 718e 3b3e
000001d0: fc5b 623d dfb7 333d e4f0 4a3d 11dd 5dbd
000001e0: 8192 60bd 59c1 5cbd 7a62 5dbd c07e 8dbc
000001f0: 3be5 0d3e 9a1a 653b 3779 f63d b613 263e
00000200: 10d2 01be 2f57 b23d dc6b a0bd fdd4 58bd
00000210: d99b 7a3d 4971 4bbd 892c 09bd 9d33 df3b
00000220: b3cc 883d 6c3f bb3d c8c2 603d 092b ae3c
00000230: 1926 03be 2c6d 9ebd b929 18be 7fc9 8ebc
00000240: 7e13 ac3d 98b5 003d fa73 cdbd 118f aa3d
00000250: 95f1 463d 17ad 263d 7b3c 963d 73e5 3bbd
00000260: 68de bebd 636c 8ebd f10e 84bd 434c 893d
00000270: 1a6d a6bc bcbc 7abd 0526 bebd 6459 c53d
00000280: d9ed ef3c 1c19 153d 16f3 08be 2992 793d
00000290: 2646 2a3b 79b6 08be df30 a03c d389 803d
000002a0: 9497 b0bd c5d8 733d 332a 84bd b470 d73b
000002b0: 774d 8dbc 2da6 0ebe df80 8e3d a797 aa3d
000002c0: daeb 02be 3db6 ecba 33a1 d9bd 190c 403d
000002d0: 0138 0cbd 75a4 533c e8a6 0cbe da21 b03d
000002e0: 697d 0bbe de1c 6b3d 61e2 16be c6e2 edbc
000002f0: 062e 09be da20 e1bd 581b 383b 10fa 83bd
00000300: 98e2 d5bd 9018 36bd 1dda f1bd 80d2 2a3d
00000310: 5ede 45bd 767a 5b3d 5a8a d03c 3488 b1bc
00000320: b96c 0dbe e3e8 afbc b9c1 8d3d 5b4c 313b
00000330: 6756 e5bd 203f 30bd a910 07be 63bd e3bd
00000340: 804b a7bb 9c5a d33d 259d aebd b888 f2bd
00000350: bc88 87bc 6011 8c3d 1ce1 2dbc 7b28 9cbc
00000360: 202e eebd 1bc8 08bd f8ae 9b3b ab93 1e3d
00000370: dcf2 04be 1d42 993b 0190 763d 60b8 da3d
00000380: 5a39 21bd 049e a9bd 9fc9 063d 1ef0 afbd
00000390: 384f b73d 9a87 68bc ae53 f2bd 699d 443d
000003a0: 526c a83b 080f b03d 430c f3bd cddd 2d3c
000003b0: 7679 863d 141f 0cbe 7c69 c03d 5beb ffbd
000003c0: d888 973a 8508 803d 0b92 1c3d d0eb d2bb
000003d0: 440b 71bd 55c4 b3bd 89a5 67bd 85a4 d33d
000003e0: de37 1dbd 05e2 64bc 8901 773d 7cbc 6abd
000003f0: e84a 363d 34a5 e6bc 3530 5abd dbaa 783d
0.093853936 0.038457964 -0.011217062 0.11504675 0.14015193 0.12557942 0.07141129 -0.0062938463
0.102588624 0.003761901 -0.007380515 -0.022986935 -0.07685946 -0.06741846 0.17014009 0.13247329
0.041579444 0.16128594 -0.017328274 0.0077823624 -0.02540851 0.10871746 0.09883077 0.1727877
0.08980665 0.06878186 0.039136123 -0.064680606 0.012159393 -0.0607198 -0.04958421 0.0015638848
0.074038886 0.026691528 0.054977182 0.13877077 0.10098135 0.094040915 -0.0039059992 0.123995386
0.011930461 0.12051436 0.15875311 0.023807518 0.1221649 0.124983184 -0.03953598 0.14739685
0.09854366 0.12324459 0.12217075 -0.020339727 0.1467558 0.023164235 0.13260585 0.09496623
0.002585664 0.1643447 0.14307806 0.080461875 0.057532378 0.039639775 -0.025785623 0.025321271
0.12654585 -0.045096498 0.1751846 0.08513881 0.08610351 0.16811676 0.018436277 0.1022453
0.020856725 0.024815453 0.012339167 0.11768439 -0.011709153 0.14591528 0.028486563 0.11474372
0.104334585 -0.05863118 -0.052176807 0.058184657 0.11030739 -0.03829189 -0.04805796 -0.007343955
0.10168281 0.051052764 0.085714854 0.018179717 -0.061761964 0.032801405 0.065355785 -0.04991833
-0.05179366 -0.032068703 -0.02264404 0.0010725311 -0.09167939 0.13946986 0.055818707 0.1495206
-0.059565406 0.015246114 -0.051531255 0.12550114 0.061084338 0.0159076 -0.039079353 0.076794
0.05395404 0.064040184 -0.06926525 0.18316056 0.055263504 0.043876525 0.049546137 -0.054165903
-0.054827217 -0.05389533 -0.054048993 -0.017272353 0.13856976 0.0034958483 0.12034839 0.16218457
-0.12677789 0.08708035 -0.078330725 -0.052937496 0.061183784 -0.049668584 -0.033489738 0.0068115727
0.06679668 0.09142956 0.054873258 0.021260755 -0.12807502 -0.07735667 -0.14859666 -0.017430065
0.08402155 0.03142318 -0.100318864 0.08328069 0.048570234 0.040692415 0.073357545 -0.045873117
-0.093197644 -0.06954267 -0.06448162 0.06703999 -0.020315696 -0.061215147 -0.092845954 0.096361905
0.02928822 0.0364009 -0.1337398 0.060930405 0.0025981753 -0.13350858 0.019554554 0.06276288
-0.08622661 0.0595329 -0.06453361 0.0065747146 -0.017248852 -0.13930579 0.06958174 0.08329707
-0.12785283 -0.0018059682 -0.106264494 0.046886537 -0.034233097 0.012917628 -0.13735545 0.08600207
-0.13622059 0.057400577 -0.14734794 -0.029038798 -0.13396463 -0.10992594 0.002809247 -0.0644418
-0.1044361 -0.04445702 -0.1180918 0.041704655 -0.04830777 0.053583585 0.025456596 -0.021671392
-0.13811006 -0.021473354 0.06921715 0.0027053568 -0.111981206 -0.04302895 -0.13189949 -0.11120107
-0.005105436 0.10320017 -0.08526067 -0.11842483 -0.016544692 0.068392515 -0.010612752 -0.019062271
-0.116298914 -0.03339396 0.0047510825 0.038715046 -0.12983268 0.004677071 0.060195927 0.10679698
-0.039361335 -0.08282092 0.032907125 -0.085907206 0.08950657 -0.014192486 -0.11832367 0.04800168
0.005139866 0.08596617 -0.11867573 0.010611963 0.065661356 -0.1368373 0.093951195 -0.12496062
0.0011561168 0.06251625 0.038225215 -0.0064368024 -0.058848634 -0.08777682 -0.05655435 0.10334114
-0.038383357 -0.013969903 0.0603042 -0.05730866 0.04450503 -0.028154947 -0.05326863 0.060709815

fc2.bias f4 [64]
00000000: 9cb0 9b3d a381 28bd 97fe 813c 18eb acbc
00000010: 3512 103d 0d5d 2a3e 4e98 c73c d536 dd3b
00000020: cbc0 583c 5cb4 0f3e d245 8f3c 54e9 80bd
00000030: 523a d7ba 117b dcbd 043c ecbd 7d6e abbd
00000040: ba24 5dbd 5423 a23d f9b6 35bd 2911 01be
00000050: f13a 1c3d 5550 6d3d 50de 16be 1f05 be39
00000060: c799 f7bd eb14 edbc b104 283e a9f3 853d
00000070: ba2b 92bd 6a02 ae3d 3834 423d f7b4 f93c
00000080: f1b4 18bc 6b12 613d 8011 c4bb 67ed 363e
00000090: d21d 973d e9c5 91bd 8756 cabc ede9 2ebd
000000a0: a81b d5bd 5ef3 0cbd 3d1a 833b 92bc b8bd
000000b0: fa6c 353e f6f7 4c3b a352 073d 9339 0fbe
000000c0: 51e8 1abd 4a77 a83d 14b7 113e 402a 00be
000000d0: 0de1 8dbd c113 9b3d ddf5 97bc 0b14 8d3d
000000e0: 343d 36bd b6ef 3bbd b943 d13b d747 0fbe
000000f0: 0667 80bd 94ac 0ebe df88 fc3c 97fc 0abc
0.07602045 -0.041139256 0.015868468 -0.021108195 0.035173614 0.16637059 0.024364617 0.0067509213
0.013229559 0.14033645 0.017489348 -0.06294504 -0.0016420579 -0.107656606 -0.115348846 -0.08370683
-0.053990103 0.079168946 -0.04436395 -0.12604202 0.03814215 0.05793794 -0.14733243 0.0003624344
-0.120898776 -0.028940639 0.1640804 0.06540615 -0.071372464 0.08496554 0.04741308 0.030481799
-0.009320484 0.054949205 -0.0059835315 0.17864 0.07378735 -0.071178265 -0.024699463 -0.042703558
-0.10405666 -0.03441178 0.0040009306 -0.09020342 0.17717353 0.0031275726 0.033037793 -0.13986807
-0.03781921 0.082258776 0.14229995 -0.12516117 -0.06927691 0.07572127 -0.018549854 0.068885885
-0.04449196 -0.045882903 0.006386247 -0.13992248 -0.0626965 -0.13933021 0.030826984 -0.008483074

fc3.weight f4 [1, 64]
00000000: 1433 893d b4b3 fc3d 394f b2bd e41c 523a
00000010: 878b ee3d ed4e 1d3e 74ca bb3d fce4 1f3e
00000020: 7af2 83bd 9e35 db3d d8ca 25bd 9ca2 9abd
00000030: 27a3 f93d 54ad 9cbd 7f93 86bd 10cb 013c
00000040: c6a5 a03d 0a1c cfbd 4bdd ce3d 01c1 afbd
00000050: e064 4d3d 772c 67bd dc2a 8bbc c79c 913d
00000060: d6fc a9bd f292 283e 53b1 ec3d 3d42 103e
00000070: 6240 d1bc a2f5 d83d 133b c7bd 5724 e13d
00000080: 9ca7 a7bd 50aa a83d fe73 193e 129b 9f3d
00000090: b758 a03d 86a0 9bbd 9158 a03d abc1 af3d
000000a0: 218f 7cbd cd53 2e3d 6840 1b3d 6484 afbd
000000b0: a854 423d 8d36 083e b704 493d 70cd 87bc
000000c0: 0c54 de3d e8dd 103e 0ac8 253e 6f05 a1bd
000000d0: efc1 2cbd a579 973d 95ea b83d 4b7a b3bd
000000e0: 5f93 723a ff9d 983b a903 c8bd 497d a0bd
000000f0: 9f85 0d3c 1bb1 8bbc cd02 b7bd 5e0c c03d
0.066991955 0.12338963 -0.08706517 0.00080151693 0.116477065 0.15362139 0.09169474 0.15614694
-0.06442733 0.10703586 -0.04047665 -0.075505465 0.12189322 -0.07650247 -0.065711014 0.007921949
0.07844119 -0.1011277 0.10100802 -0.085817344 0.05014503 -0.05643889 -0.01698821 0.07109981
-0.08300178 0.16462305 0.115572594 0.14087768 -0.025543395 0.10593726 -0.097280644 0.109932594
-0.08186266 0.082356095 0.14985654 0.07793249 0.07829421 -0.07598977 0.07829393 0.08581861
-0.061659936 0.042560387 0.03790322 -0.085701734 0.047444016 0.1330206 0.049076762 -0.016577452
0.108558744 0.1414715 0.1618959 -0.078623645 -0.042177137 0.07396249 0.09029118 -0.0876356
0.00092535274 0.0046575065 -0.09766323 -0.07836396 0.008637815 -0.017052224 -0.08936081 0.09377359
